src/models/checkpoints/simple_digit_model.pt (torch, 794167 bytes, 20 tensors)

conv1.weight f4 [16, 1, 3, 3]
-0.22171016 -0.35982785 -0.21608506 -0.1558648 -0.34676683 0.37426046 -0.5805112 0.38796985
0.463739 -0.22724602 -0.43887228 0.05408444 -0.25451028 0.12673216 -0.21939124 -0.3448422
-0.39665383 0.22990274 0.40697482 0.5121983 0.39152953 0.045852486 0.14706767 0.4475292
-0.72062933 -0.52913326 0.29103145 -0.14987943 0.10766453 0.28614956 -0.572253 -0.034498937
0.6748024 -0.61476696 -0.09297165 0.97109246 0.5221897 0.7646453 -0.47854134 0.71694076
-0.15438984 -0.6145302 0.40505832 -0.30364132 -0.10828199 0.32964483 0.34649706 0.4906927
-0.2099959 0.028049212 0.16891271 -0.5684092 -0.3178356 -0.35062572 -0.077114664 0.07758318
-0.34875575 -0.25933272 0.14831047 -0.11630681 -0.5109583 -0.45652655 -0.6622813 -0.33948934
0.2281383 0.59377766 0.21351916 0.27294 0.34279606 -0.38300613 -0.80581343 -0.2968955
-0.23582385 -0.6737563 -0.69002694 0.48547247 0.2188171 -0.2086421 0.45277697 0.46561518
0.044620086 -0.2422903 -0.6089849 -0.54032475 0.2173314 -0.2843355 0.04073091 0.48869509
0.69128126 0.33743244 -0.44206572 -0.62958777 -0.23151249 -0.34303072 0.0069186166 0.7158801
0.3606049 0.5242921 0.53211176 -0.22703725 -0.19100955 -0.27230388 -0.5060192 -0.21682455
-0.4114571 0.19639026 -0.25999403 -0.48966765 -0.06828206 0.5818491 -0.6840084 -0.25546905
0.66634244 -0.118280075 -0.370975 -0.08632687 0.25945747 0.7038373 0.5067927 0.27783003
0.3424236 -0.060726844 -0.40561995 -0.6174129 -0.51494837 -0.3459125 -0.17527975 -0.37149417
-0.36119387 -0.42459026 0.38255835 0.19593184 0.10732833 -0.20071034 -0.0024490464 0.48614714
0.28704503 -0.5179069 0.43181533 -0.17769197 -0.5297117 0.6450881 -0.33185735 -0.2396205
00000000: fd07 63be 5b3b b8be 6745 5dbe 069b 1fbe
00000010: 6c8b b1be 119f bf3e 629c 14bf fca3 c63e
00000020: 336f ed3e 2eb3 68be deb3 e0be a587 5d3d
00000030: 2c4f 82be 13c6 013e 19a8 60be 288f b0be
00000040: 3616 cbbe a06b 6b3e 015f d03e 6e1f 033f
00000050: 8f76 c83e d1cf 3b3d e898 163e 8c22 e53e
00000060: 2a7b 38bf 4775 07bf 1302 953e fe79 19be
00000070: 397f dc3d 3282 923e 2c7f 12bf c24e 0dbd
00000080: dabf 2c3f 5e61 1dbf ec67 bebd 8499 783f
00000090: 39ae 053f cbbf 433f 5f03 f5be 6e89 373f
000000a0: 5f18 1ebe da51 1dbf ce63 cf3e e076 9bbe
000000b0: f3c2 ddbd 35c7 a83e 1068 b13e 133c fb3e
000000c0: 2a09 57be 76c7 e53c 74f7 2c3e 4483 11bf
000000d0: 59bb a2be 3785 b3be 4bee 9dbd eee3 9e3d
000000e0: 1d90 b2be 42c7 84be b3de 173e 4432 eebd
000000f0: 2ace 02bf d9bd e9be 448b 29bf 8cd1 adbe
00000100: 169d 693e d001 183f c4a4 5a3e cbbe 8b3e
00000110: f782 af3e 6119 c4be ca49 4ebf b002 98be
00000120: cf7b 71be 4b7b 2cbf 9ba5 30bf d98f f83e
00000130: 9711 603e 46a6 55be 62d2 e73e 1d65 ee3e
00000140: 8dc3 363d f31a 78be 6fe6 1bbf b952 0abf
00000150: 1f8c 5e3e 6c94 91be 74d5 263d 3e36 fa3e
00000160: cff7 303f f2c3 ac3e 7056 e2be aa2c 21bf
00000170: 9c11 6dbe b9a1 afbe 90b5 e23b eb43 373f
00000180: 35a1 b83e 0238 063f 7a38 083f 747c 68be
00000190: 0298 43be 6a6b 8bbe 798a 01bf 4107 5ebe
000001a0: 81aa d2be 871a 493e f01d 85be b8b5 fabe
000001b0: 77d7 8bbd 10f4 143f 2d1b 2fbf d7cc 82be
000001c0: 6b95 2a3f d33c f2bd 6ff0 bdbe 24cc b0bd
000001d0: 9cd7 843e ae2e 343f 2bbd 013f bd3f 8e3e
000001e0: 2552 af3e b6bc 78bd 6bad cfbe c60e 1ebf
000001f0: a8d3 03bf 711b b1be 897c 33be 7c34 bebe
00000200: 67ee b8be e563 d9be b0de c33e 5ba2 483e
00000210: f5ce db3d 0387 4dbe 2e80 20bb 47e8 f83e
00000220: 91f7 923e 8c95 04bf e616 dd3e e2f4 35be
00000230: 309b 07bf 7e24 253f 35e9 a9be 145f 75be

conv1.bias f4 [16]
-0.5253279 -0.57571024 0.32557228 0.31332347 -0.045090944 -0.22733438 -0.73858577 -0.24507853
0.13570563 -0.057992775 0.08005727 -0.5123636 -0.33378467 -0.17775853 0.1751852 0.04503578
00000000: e47b 06bf bf61 13bf 69b1 a63e ef6b a03e
00000010: 48b1 38bd 58ca 68be f513 3dbf def5 7abe
00000020: 6bf6 0a3e d589 6dbd 11f5 a33d 432a 03bf
00000030: d3e5 aabe 5506 36be c063 333e 7077 383d

conv2.weight f4 [32, 16, 3, 3]
-0.07292691 -0.036084756 0.12937102 -0.031986672 0.033219747 0.05509998 0.01665482 0.04810479
0.04787666 -0.05039952 -0.0112735825 0.05924423 -0.042212587 -0.057390664 0.113092564 -0.031247195
0.048460763 0.042040076 0.045595765 -0.08297721 -0.14052607 0.022184042 -0.11729573 -0.030002
-0.014022779 -0.11562427 -0.058093414 -0.0012068672 -0.13467972 0.013656617 0.021064464 -0.122080274
0.006200784 -0.0745232 -0.09195848 0.019921642 0.027330631 0.03842204 -0.007450126 0.008652258
0.0064056995 0.03622086 0.020901954 0.10416725 -0.032330804 -0.1097541 -0.0036039953 -0.1030886
-0.09444156 -0.01605131 0.006484128 0.017120443 0.057040125 0.058134466 -0.0071825963 0.01273886
0.05640296 0.04023471 0.027065873 0.066689536 -0.019989206 0.105856374 0.10068828 -0.06981951
-0.051238813 -0.07588187 -0.0080496175 -0.07325682 -0.001955752 -0.053373184 -0.03698833 0.042451616
0.084223755 0.09020876 -0.008292894 -0.11011508 -0.0521804 -0.08271792 0.0075316923 -0.0033993574
-0.025966574 -0.074086934 -0.014585898 0.031002907 -0.010317231 0.0093128765 -0.08261765 -0.1255586
-0.024433194 -0.16981764 -0.19846702 -0.10789237 -0.08280211 -0.09845364 -0.0981594 0.057268895
0.00080974423 -0.09781247 -0.11094817 0.0683876 0.075603746 0.0453048 -0.07849184 -0.02051495
0.017499 -0.060085304 0.037522644 0.11769604 -0.06658514 -0.02211396 -0.024884658 -0.07963426
0.055780474 -0.016938904 0.024501279 -0.00926744 -0.0041209795 -0.17748724 -0.1323877 0.0224481
-0.08808708 -0.09027567 -0.03679705 -0.051548008 0.003139568 -0.05731095 0.0026648068 0.05517536
0.10309812 -0.02561325 -0.06379608 -0.020140452 -0.059195768 0.009706398 0.07917668 0.060714617
0.069559105 -0.01656772 0.040706594 0.05144017 -0.059550483 0.14100052 0.10224029 0.069182545
-0.08888431 -0.05272853 0.013147187 0.012854024 -0.06924705 0.18889828 0.17840892 0.042644087
0.092126876 0.039657995 -0.046012405 0.030582791 -0.03980872 0.020307923 0.024761165 0.14034171
-0.012776599 -0.05098764 -0.05943224 -0.16372141 -0.12851319 0.14100888 -0.008323361 -0.05912495
-0.08941478 -0.13787802 0.019200346 -0.039946772 -0.078801244 0.3246664 -0.02299953 0.021155285
0.14874 0.056245122 0.21734215 0.2162943 -0.010181797 0.05631356 -0.06011359 -0.037385777
0.011327148 -0.003376756 0.02405779 0.11920765 0.1709714 -0.062984146 -0.13411 -0.14969909
0.09359664 0.01679002 -0.07684943 -0.08530695 -0.11420606 -0.15476353 -0.058502242 0.084114574
-0.028827328 0.048203066 0.056286488 -0.16851842 0.0904348 -0.20844527 -0.14008407 -0.027765142
-0.008246002 -0.19168192 0.1320939 0.00921494 -0.11077891 -0.17585574 -0.12763305 -0.1236965
0.088237 0.06398099 -0.28326887 0.06270942 0.008902296 -0.25090873 -0.09889774 -0.1849497
-0.29186106 0.11856891 0.07287614 -0.08031836 0.118082166 0.072113976 -0.057251766 0.027416848
-0.13256045 -0.22235164 0.07222645 0.033627 0.10062632 -0.026463546 -0.014079001 0.072800666
-0.005126133 0.10196765 -0.044599492 0.037752092 0.05825923 -0.23054977 0.02727682 0.012412471
-0.24189952 0.12188032 -0.14698806 -0.21613769 0.021149402 -0.062691554 -0.073883526 0.04702441
00000000: b45a 95bd 9ccd 13bd d679 043e 7504 03bd
00000010: 6e11 083d 84b0 613d b06f 883c 8709 453d
00000020: 511a 443d ba6f 4ebd d5b4 38bc 14aa 723d
00000030: 1be7 2cbd 7912 6bbd 139d e73d 1efa ffbc
00000040: cb7e 463d 3732 2c3d a0c2 3a3d f5ef a9bd
00000050: 11e6 0fbe 4fbb b53c be38 f0bd c1c6 f5bc
00000060: ccbf 65bc 6bcc ecbd 5cf3 6dbd be2f 9eba
00000070: 7be9 09be 01c0 5f3c 628f ac3c 3905 fabd
00000080: f22f cb3b 9f9f 98bd ba54 bcbd b632 a33c
00000090: 7de4 df3c 6e60 1d3d 3020 f4bb 33c2 0d3c
000000a0: e7e6 d13b 535c 143d 933a ab3c a455 d53d
000000b0: 4e6d 04bd c2c6 e0bd 0231 6cbb 1e20 d3bd
000000c0: 946a c1bd 097e 83bc cf78 d43b 2c40 8c3c
000000d0: e8a2 693d 681e 6e3d fc5b ebbb a7b6 503c
000000e0: ca06 673d 27cd 243d 40b9 dd3c 8694 883d
000000f0: 67c0 a3bc 3acb d83d a835 ce3d 88fd 8ebd
00000100: cadf 51bd f467 9bbd 8be2 03bc ac07 96bd
00000110: 132c 00bb d79d 5abd 1381 17bd bfe1 2d3d
00000120: 817d ac3d 5fbf b83d ebde 07bc 0484 e1bd
00000130: 1dbb 55bd 0368 a9bd 6acc f63b c1c7 5ebb
00000140: dab7 d4bc e4ba 97bd b1f9 6ebc cff9 fd3c
00000150: 9a09 29bc 0995 183c 7133 a9bd 6f92 00be
00000160: 1f28 c8bc ade4 2dbe f03a 4bbe adf6 dcbd
00000170: 2794 a9bd 10a2 c9bd cc07 c9bd ca92 6a3d
00000180: 0445 543a e751 c8bd cb38 e3bd cc0e 8c3d
00000190: 23d6 9a3d 8791 393d 54c0 a0bd f80e a8bc
000001a0: 105a 8f3c 021c 76bd 58b1 193d 9f0a f13d
000001b0: ca5d 88bd 5628 b5bc e9da cbbc 4917 a3bd
000001c0: 117a 643d 75c3 8abc e8b6 c83c 76d6 17bc
000001d0: 4809 87bb 37bf 35be a490 07be 14e5 b73c
000001e0: 0067 b4bd 73e2 b8bd 81b8 16bd 0124 53bd
000001f0: 36c1 4d3b e3be 6abd 0aa4 2e3b 8fff 613d
00000200: 1b25 d33d e1d2 d1bc 85a7 82bd 97fd a4bc
00000210: 4377 72bd 9507 1f3c 6227 a23d e4af 783d
00000220: 0175 8e3d 07b9 87bc f5bb 263d edb2 523d
00000230: 35eb 73bd 7162 103e 5b63 d13d 94af 8d3d
00000240: fa08 b6bd dff9 57bd 4d67 573c af99 523c
00000250: 66d1 8dbd 8d6e 413e d4b0 363e 91ab 2e3d
00000260: 04ad bc3d 6c70 223d 8177 3cbd c388 fa3c
00000270: 780e 23bd cd5c a63c edd7 ca3c bdb5 0f3e
00000280: f154 51bc 6ad8 50bd 386f 73bd 96a6 27be
00000290: f698 03be a264 103e b55e 08bc 012d 72bd
000002a0: 191f b7bd e52f 0dbe 0b4a 9d3c 3a9f 23bd
000002b0: 8c62 a1bd ad3a a63e 8369 bcbc d94d ad3c
000002c0: 4c4f 183e 4961 663d f18e 5e3e 417c 5d3e
000002d0: 8dd1 26bc 0ca9 663d ab39 76bd d421 19bd
000002e0: 8195 393c 914c 5dbb d814 c53c 2423 f43d
000002f0: 2013 2f3e d5fd 80bd 2254 09be b84a 19be
00000300: 98af bf3d 398b 893c 3c63 9dbd 69b5 aebd
00000310: dee4 e9bd 557a 1ebe 0ca0 6fbd 4344 ac3d
00000320: 4a27 ecbc 9470 453d a98c 663d 1890 2cbe
00000330: e135 b93d ad72 55be 3372 0fbe b973 e3bc
00000340: 3d1a 07bc 4448 44be a043 073e 42fa 163c
00000350: 0ee0 e2bd 8713 34be 3db2 02be 9754 fdbd
00000360: 9ab5 b43d 7708 833d 9e08 91be cc6d 803d
00000370: f0da 113c 1c77 80be e68a cabd 7463 3dbe
00000380: d06e 95be 42d4 f23d 1640 953d f47d a4bd
00000390: 10d5 f13d 7eb0 933d d480 6abd 4c99 e03c
000003a0: edbd 07be 26b0 63be 76eb 933d 77bc 093d
000003b0: 2c15 ce3d 14ca d8bc 9cab 66bc 8418 953d
000003c0: 1ff9 a7bb 6ad4 d03d f5ad 36bd f0a1 1a3d
000003d0: 3ba1 6e3d 3d15 6cbe a373 df3c ad5d 4b3c
000003e0: 82b4 77be 649c f93d 0a84 16be 3353 5dbe
000003f0: 8341 ad3c 6e64 80bd 3f50 97bd ab9c 403d

conv2.bias f4 [32]
-0.057201188 -0.013033431 0.01641515 0.01778036 -0.05930388 -0.007110352 -0.046156697 -0.031404234
0.056268673 -0.01261721 -0.066045396 -0.064519644 -0.04558349 0.025182791 -0.018729378 -0.04936915
0.019858275 0.08172037 0.06902376 0.07213635 0.03342542 0.08141829 -0.060405124 -0.04500182
0.036421906 -0.11095381 0.004179828 -0.088258035 0.08004176 0.10556557 -0.021859653 -0.01292885
00000000: cb4b 6abd 2c8a 55bc 1179 863c 1ea8 913c
00000010: a0e8 72bd f5fd e8bb ce0e 3dbd baa1 00bd
00000020: fb79 663d 6ab8 4ebc cf42 87bd e022 84bd
00000030: c1b5 3abd 244c ce3c 5a6e 99bc 4e37 4abd
00000040: d2ad a23c 025d a73d 545c 8d3d 39bc 933d
00000050: 18e9 083d a2be a63d 5d6b 77bd d453 38bd
00000060: 232f 153d c03b e3bd f0f6 883b a1c0 b4bd
00000070: efec a33d c332 d83d 0413 b3bc 87d3 53bc

conv3.weight f4 [64, 32, 3, 3]
0.06460106 0.014917264 -0.013261087 0.009351049 -0.05170677 -0.029234733 -0.03220116 -0.06431406
0.0036173093 -0.07405042 -0.004592695 0.061750025 0.02474926 0.029536804 0.10771479 0.09153731
0.0073467377 -0.01157192 -0.011018767 0.04299564 0.024184389 -0.02140623 0.04628176 -0.032492727
-0.06230991 -0.06669955 -0.046817336 -0.050404686 -0.053730287 -0.042916298 -0.054833855 -0.04472001
-0.029563848 0.032933455 0.022293545 0.12035665 -0.027446669 -0.03330868 -0.049548768 -0.016438328
-0.002189183 -0.05425606 -0.025531098 0.008466709 -0.010287541 -0.018591335 0.014189489 0.041265614
-0.021532869 0.020283842 -0.024411954 0.09408207 -0.020875914 0.012684841 -0.012768037 -0.009670413
-0.017663322 0.022647671 -0.03634156 -0.008496023 0.0005268531 -0.049915805 0.043181475 0.018184414
-0.025990332 -0.041893702 -0.07845808 -0.067843966 -0.008345928 -0.027880361 0.05540113 0.013944788
-0.021308023 -0.06502563 -0.02628929 0.04695288 0.071465366 0.04430331 0.0013184284 -0.006421384
0.013274342 -0.016474042 0.027437536 -0.068329744 -0.010221918 0.0098174 -0.06935781 -0.039693516
-0.0109840315 -0.004120899 0.05914813 0.053050444 -0.01357165 -0.007692409 -0.075365216 -0.057207447
0.0029894218 0.004284983 -0.03898422 -0.053975176 -0.084526874 -0.08137031 0.02676284 -0.038735006
-0.045441214 -0.0126328245 0.03459078 -0.0005424776 -0.07197828 -0.099349536 -0.06884638 -0.0021202161
-0.036209993 0.05014112 0.0011626082 0.019155573 -0.0022335658 0.018331638 -0.002051043 0.027765602
0.0038894888 0.046305697 -0.020946052 0.060026914 -0.036251668 -0.061472494 -0.047969345 -0.05284661
-0.07498288 -0.022485761 -0.0026080532 -0.021740828 0.002428678 0.016895236 0.0004267213 -0.0077509074
-0.07626409 -0.062335506 -0.051499315 0.0015177114 0.07473962 0.21155308 0.1652991 0.15259054
-0.019130304 0.026537443 0.040394444 0.03178039 -0.02587219 0.041177254 0.016835665 -0.058694046
0.034779936 -0.011339143 -0.06728597 -0.07364827 -0.0347787 -0.04043841 0.0037085852 0.011933576
0.043926153 0.12256817 -0.02289508 0.011828584 -0.034889687 -0.04170456 -0.04797099 -0.03477621
0.06460723 0.021817628 0.008376032 -0.034159593 -0.07708182 -0.12582627 -0.035036713 -0.016834155
-0.0029830572 0.044821598 0.024244947 0.034590952 0.054365642 0.070160896 0.053233694 0.035281688
-0.046145983 -0.068703584 -0.013822308 -0.09431809 -0.030215463 -0.041255634 -0.036591414 0.054366194
0.045352366 0.037105188 0.03953078 0.048806645 -0.0048942673 -0.10487569 0.011924608 0.011556608
-0.08634597 -0.0421166 0.026194738 0.0010083271 0.05018337 0.036267735 0.11449792 -0.05475132
-0.018834567 -0.016306622 -0.030818421 -0.024314746 -0.019460872 0.07781707 0.060037956 0.16328959
-0.070810325 0.012466957 0.031824823 0.033319846 0.027804703 -0.084559724 -0.015229016 -0.0032362433
-0.0988431 0.049979992 0.07045802 0.0013486559 -0.015778804 -0.060960956 -0.0744689 -0.012117792
-0.06978818 0.017067406 0.017961837 -0.015657557 0.035503637 -0.013392376 -0.015419324 0.072297856
0.080245934 0.02249833 -0.041174896 0.08435244 -0.021294083 -0.037211124 -0.04828087 -0.073959775
-0.07310375 0.021460855 0.0025785128 0.024318306 -0.019185232 -0.07062514 -0.058907643 0.020602476
00000000: 8f4d 843d 8a67 743c 0845 59bc 2435 193c
00000010: 7aca 53bd ae7d efbc 5de5 03bd 17b7 83bd
00000020: 6110 6d3b bfa7 97bd 517e 96bb 98ed 7c3d
00000030: f6be ca3c 2bf7 f13c 9299 dc3d ea77 bb3d
00000040: e7bc f03b 2698 3dbc 0f88 34bc 321c 303d
00000050: 571e c63c 1e5c afbc f191 3d3d 1817 05bd
00000060: ad38 7fbd c699 88bd 89c3 3fbd 2575 4ebd
00000070: 4a14 5cbd 00c9 2fbd 7799 60bd 542c 37bd
00000080: e22f f2bc 3be5 063d f4a0 b63c 8c7d f63d
00000090: d6d7 e0bc af6e 08bd a6f3 4abd aca9 86bc
000000a0: 6578 0fbb 9a3b 5ebd 9826 d1bc f4b7 0a3c
000000b0: 138d 28bc db4c 98bc 087b 683c 2206 293d
000000c0: b365 b0bc 4d2a a63c 94fb c7bc 1aae c03d
000000d0: f703 abbc 14d4 4f3c 0731 51bc a770 1ebc
000000e0: acb2 90bc 9c87 b93c e3da 14bd e732 0bbc
000000f0: 831c 0a3a 8474 4cbd 0fdf 303d 7bf7 943c
00000100: ade9 d4bc bb98 2bbd a1ae a0bd c7f1 8abd
00000110: 5cbd 08bc 5b65 e4bc 4cec 623d ae78 643c
00000120: 2a8e aebc 282c 85bd a35c d7bc aa51 403d
00000130: 6f5c 923d 6377 353d 1ecf ac3a 796a d2bb
00000140: a07c 593c 92f4 86bc afc4 e03c 77f0 8bbd
00000150: d579 27bc 29d9 203c 780b 8ebd ab95 22bd
00000160: 5ef6 33bc 9b08 87bb 4f45 723d 6c4b 593d
00000170: a05b 5ebc 9b10 fcbb 1459 9abd 5b52 6abd
00000180: 2dea 433b 0b69 8c3b ebad 1fbd 1315 5dbd
00000190: 6d1c adbd 7aa5 a6bd be3d db3c 99a8 1ebd
000001a0: 9120 3abd e8f9 4ebc 10af 0d3d 0e35 0eba
000001b0: 5969 93bd c577 cbbd 55ff 8cbd 53f3 0abb
000001c0: ee50 14bd c660 4d3d a862 983a 26ec 9c3c
000001d0: 0461 12bb 3b2c 963c cb6a 06bb b074 e33c
000001e0: cbe6 7e3b 0bab 3d3d 0e97 abbc c8de 753d
000001f0: a17c 14bd 95ca 7bbd 817b 44bd b075 58bd
00000200: a090 99bd 0f34 b8bc dfeb 2abb d219 b2bc
00000210: 752a 1f3b e167 8a3c 90b9 df39 53fb fdbb
00000220: 5930 9cbd 8453 7fbd f2f0 52bd f2ed c63a
00000230: 1611 993d 5fa1 583e 2b44 293e b240 1c3e
00000240: 28b7 9cbc 0d65 d93c a574 253d 272c 023d
00000250: eaf1 d3bc 7ba9 283d f3ea 893c 2b69 70bd
00000260: 6875 0e3d d0c7 39bc 3acd 89bd e7d4 96bd
00000270: 1c74 0ebd bfa2 25bd bc0b 733b 0c85 433c
00000280: e9eb 333d 0505 fb3d 768e bbbc adcc 413c
00000290: 7de8 0ebd 67d2 2abd 3b7d 44bd 8071 0ebd
000002a0: cc50 843d e2ba b23c a03b 093c eeea 0bbd
000002b0: 13dd 9dbd 9ad8 00be a882 0fbd c8e7 89bc
000002c0: 657f 43bb da96 373d 579d c63c 3eaf 0d3d
000002d0: 82ae 5e3d 84b0 8f3d 930b 5a3d 8883 103d
000002e0: 9203 3dbd 77b4 8cbd f676 62bc d829 c1bd
000002f0: 6b86 f7bc abfb 28bd e1e0 15bd 16af 5e3d
00000300: 67c3 393d 9cfb 173d 07eb 213d 7ae9 473d
00000310: 1760 a0bb 11c9 d6bd 6e5f 433c ed57 3d3c
00000320: 28d6 b0bd 7582 2cbd 5996 d63c d829 843a
00000330: 148d 4d3d 7a8d 143d e37d ea3d ec42 60bd
00000340: f34a 9abc 7795 85bc ea76 fcbc b82f c7bc
00000350: 686c 9fbc 8e5e 9f3d 5cea 753d 6335 273e
00000360: 0105 91bd 3542 4c3c bf5a 023d 647a 083d
00000370: b0c6 e33c a62d adbd 1f83 79bc 2717 54bb
00000380: 406e cabd d2b7 4c3d 4b4c 903d 62c5 b03a
00000390: 8d42 81bc 32b2 79bd 2783 98bd b489 46bc
000003a0: 1bed 8ebd f2d0 8b3c b424 933c 4744 80bc
000003b0: 436c 113d b26b 5bbc 55a1 7cbc e610 943d
000003c0: fb57 a43d 6b4e b83c 02a7 28bd f9c0 ac3d
000003d0: ee70 aebc b16a 18bd 29c2 45bd 3978 97bd
000003e0: 6bb7 95bd adce af3c 44fc 283b 2f37 c73c
000003f0: 592a 9dbc eaa3 90bd 2449 71bd 86c6 a83c

conv3.bias f4 [64]
0.0022586551 0.05514251 -0.039711863 -0.0056729848 -0.040260933 -0.051632676 0.028105367 0.010489008
0.017665768 -0.007543812 -0.014277818 0.03130187 -0.010808874 0.130508 0.008890033 -0.010066085
-0.016029038 -0.009569384 0.016034573 0.002830748 -0.14988427 -0.044879224 -0.013539362 0.10712467
-0.03763662 -0.051769033 0.0718447 -0.030445265 0.02989849 0.0014344545 0.0047666263 0.055115264
0.004396981 0.00819763 -0.09888838 0.0014462341 -0.0037407917 -0.008410947 0.03582794 -0.018833095
0.012722796 0.14809912 -0.015223563 -0.05175482 -0.04130588 0.0354787 0.042398423 0.031937953
0.119306095 -0.00851579 -0.036063254 0.060480677 -0.03052395 0.041900307 -0.012004534 -0.07350092
0.06747457 0.21168664 0.22264445 -0.0059502586 0.11956917 -0.013830785 -0.050871056 -0.037041802
00000000: f205 143b 1ddd 613d e8a8 22bd 72e4 b9bb
00000010: a6e8 24bd c97c 53bd 3a3d e63c 17da 2b3c
00000020: cdb7 903c 1532 f7bb 82ed 69bc 6436 003d
00000030: b417 31bc e4a3 053e 80a7 113c 38ec 24bc
00000040: 544f 83bc e8c8 1cbc f05a 833c 1284 393b
00000050: 437b 19be 47d3 37bd 33d4 5dbc 2e64 db3d
00000060: db28 1abd c40b 54bd 5023 933d 5968 f9bc
00000070: aeed f43c 4e04 bc3a 5c31 9c3b 8bc0 613d
00000080: 8d14 903b 5a4f 063c fe85 cabd 908f bd3a
00000090: 1228 75bb 12ce 09bc 51c0 123d dd47 9abc
000000a0: 4673 503c 4ca7 173e 406c 79bc ddfc 53bd
000000b0: 5b30 29bd 1d52 113d f8a9 2d3d 5fd1 023d
000000c0: c156 f43d d085 0bbc 10b7 13bd 96ba 773d
000000d0: 5d0d fabc a89f 2b3d aaae 44bc a687 96bd
000000e0: 1b30 8a3d 62c4 583e e8fc 633e 63fa c2bb
000000f0: aee0 f43d 849a 62bc 2b5e 50bd 25b9 17bd

fc1.weight f4 [128, 576]
-0.025477612 -0.030774366 -0.019586492 -0.0044003525 0.047649212 0.002900182 0.02371071 0.02109496
-0.01217154 0.010356824 0.027344447 -0.0005070669 0.027868886 0.04305698 -0.024925077 0.010329791
0.007524929 0.003031215 -0.035052653 0.031011537 0.00078070554 0.0038477983 0.0019676394 -0.016526518
-0.012966 -0.0022590992 0.016517477 0.031438496 -0.011422243 -0.02054751 -0.0037120539 -0.014927727
-0.013557557 -0.024686364 0.005621902 0.025066206 0.007449998 -0.040148366 -0.010543664 -0.031029388
-0.007042191 0.015227942 -0.006234922 0.02685084 0.02019382 -0.012674382 -0.040082555 0.02362051
-0.0017762983 -0.020710448 -0.021661278 0.0125384405 0.013254469 0.040842887 -0.00047206596 -0.031221827
-0.02571707 -0.02292995 0.0068670907 -0.036626015 0.021511361 0.05341911 0.0053068465 -0.0027698763
-0.027007043 0.030274954 -0.04787017 -0.0005819568 -0.027759174 0.00057358656 -0.032362632 -0.04068291
-0.036432616 -0.015028758 -0.028397147 -0.036070388 0.027887776 -0.015549297 -0.032458115 -0.012484254
0.0045468365 0.037236504 -0.034692522 -0.021974802 0.0049202177 -0.04647621 -0.028595446 0.0026895388
-0.0073594344 -0.01725464 0.030321041 -0.010130604 -0.00013235152 0.024477024 0.016229166 -0.03200644
0.006803189 0.024373392 -0.016497198 -0.01871665 -0.007492874 -0.03850483 -0.02366511 -0.021325653
-0.0060244757 -0.00705322 0.02639809 0.007752183 -0.024887487 0.025889402 0.018510494 0.030247977
0.038234916 -0.023123022 0.024190921 -0.027691076 -0.026316922 -0.032187913 -0.023250014 0.03183515
-0.030950097 0.03479492 -0.0044511682 -0.0341391 0.040221207 -0.015789002 -0.012277029 -0.035750017
0.028354963 0.012454962 -0.026630329 -0.030533604 -0.018531667 -0.03386823 0.001188064 -0.0017034704
0.015888937 -0.03185792 0.019641485 -0.008948499 0.03230612 -0.025940921 0.031210737 0.02638094
0.024837157 -0.026606701 0.019306969 -0.014742244 -0.013108969 0.040642396 -0.022071986 0.015193357
0.007265465 -0.00051869 -0.026542345 -0.015467034 -0.00074408134 -0.020467719 0.013000898 0.04303847
0.023964776 0.04644062 -0.017743645 0.022685843 0.017553205 -0.016897311 -0.026998226 -0.0022333662
0.025681302 -0.033517838 -0.020215832 -0.031758506 -0.00226798 0.018842265 0.03792879 8.424906e-05
0.012406152 0.019751757 -0.031353924 0.0048966985 0.031856988 0.010621864 0.02316524 -0.022627851
0.03760465 0.04082988 0.005278359 0.0073615587 -0.02908518 0.00045692196 -0.025874402 -0.033059016
0.01251101 0.003584496 0.0033578777 -0.017633285 -0.049411125 -0.044701874 -0.027896097 -0.02704296
0.03756527 -0.0186134 0.019609604 0.024015758 -0.015950155 -0.0029540972 0.009001987 0.038468592
0.03917086 -0.010676821 -0.048038162 -0.0031943463 -0.03123207 -0.04608665 0.015220948 0.0012354588
0.0014594609 0.0011765263 -0.043062903 -0.013140038 0.031459395 -0.039551392 0.0035055457 0.021731785
-0.041121397 0.014786983 -0.04546608 0.02331446 0.03762955 -0.0027250638 0.024020554 0.011531712
0.028260775 -0.005823596 -0.034057666 -0.010558217 -0.023944283 0.005550727 0.014763709 -0.03673631
0.005166763 0.00035987754 0.032626726 0.038628217 0.005880824 -0.01960506 0.051957525 -0.029054992
-0.013240059 0.035915334 -0.05582641 -0.0041229343 0.038854767 -0.004830517 0.031039111 0.0033786935
00000000: 6db6 d0bc 861a fcbc da73 a0bc d530 90bb
00000010: d22b 433d fb10 3e3b f73c c23c 56cf ac3c
00000020: 246b 47bc abaf 293c 7601 e03c afec 04ba
00000030: 4a4d e43c 845c 303d ad2f ccbc 493e 293c
00000040: ae93 f63b 59a7 463b 5f93 0fbd e80b fe3c
00000050: 43a8 4c3a 582b 7c3b 83f3 003b 9f62 87bc
00000060: 586f 54bc 650d 14bb a94f 873c a7c5 003d
00000070: 5c24 3bbc 4053 a8bc ee45 73bb 6d93 74bc
00000080: 8420 5ebc 0f3b cabc ef37 b83b a557 cd3c
00000090: 1d1f f43b 9d72 24bd 55bf 2cbc 5831 febc
000000a0: 2ec2 e6bb 9e7e 793c 514e ccbb 4bf6 db3c
000000b0: 836d a53c 36a8 4fbc 9b2d 24bd cd7f c13c
000000c0: aed2 e8ba f5a8 a9bc fe72 b1bc 086e 4d3c
000000d0: 4629 593c df4a 273d 9f7f f7b9 ebc4 ffbc
000000e0: 9bac d2bc 97d7 bbbc 5505 e13b 2905 16bd
000000f0: 9838 b03c ffcd 5a3d 0ee5 ad3b d086 35bb
00000100: e03d ddbc 2e03 f83c 8313 44bd 768e 18ba
00000110: 3567 e3bc be5c 163a ae8e 04bd 1fa3 26bd
00000120: 5e3a 15bd 2e3b 76bc 22a1 e8bc 8bbe 13bd
00000130: e874 e43c 7bc2 7ebc cdf2 04bd c28a 4cbc
00000140: a1fd 943b 4e85 183d bf19 0ebd 8004 b4bc
00000150: c739 a13b d75d 3ebd ff40 eabc f942 303b
00000160: 6927 f1bb 9a59 8dbc d563 f83c d5fa 25bc
00000170: d7c7 0ab9 0a84 c83c 07f3 843c 2f19 03bd
00000180: 49ed de3b b5aa c73c 2225 87bc a953 99bc
00000190: c886 f5bb 3eb7 1dbd 55dd c1bc 23b3 aebc
000001a0: f768 c5bb b31e e7bb cf40 d83c 0606 fe3b
000001b0: d8e0 cbbc 0316 d43c 52a3 973c 9bca f73c
000001c0: 379c 1c3d 7e6c bdbc 0a2c c63c 65d8 e2bc
000001d0: 9696 d7bc 79d7 03bd d076 bebc 9365 023d
000001e0: 0f8b fdbc 1e85 0e3d 1bdb 91bb 71d5 0bbd
000001f0: febe 243d f057 81bc 9825 49bc 9c6e 12bd
00000200: ab48 e83c e60f 4c3c d927 dabc 9c21 fabc
00000210: b9cf 97bc 6ab9 0abd d0b8 9b3a fb46 dfba
00000220: 8429 823c 737d 02bd 2ee7 a03c ba9c 12bc
00000230: 6c53 043d 0e82 d4bc a9ad ff3c d71c d83c
00000240: 4b77 cb3c 4cf6 d9bc a629 9e3c 7489 71bc
00000250: 00c7 56bc a478 263d 4fd0 b4bc 8fed 783c
00000260: 2313 ee3b b2f8 07ba 556f d9bc 7169 7dbc
00000270: 740e 43ba ebab a7bc b801 553c 1b49 303d
00000280: c751 c43c 8538 3e3d 1f5b 91bc a9d7 b93c
00000290: bdcb 8f3c 3b6c 8abc 622b ddbc ab5d 12bb
000002a0: 9861 d23c 004a 09bd ac9b a5bc 3515 02bd
000002b0: 64a2 14bb 185b 9a3c 385b 1b3d dfae b038
000002c0: 2c43 4b3c 70ce a13c f96c 00bd 7c74 a03b
000002d0: 797c 023d 5407 2e3c 08c5 bd3c 0b5e b9bc
000002e0: 5507 1a3d 3b3d 273d 16f6 ac3b 3b39 f13b
000002f0: 0b44 eebc 078f ef39 8ef6 d3bc e468 07bd
00000300: fbfa 4c3c dde9 6a3b d70f 5c3b ae73 90bc
00000310: 5263 4abd 5019 37bd 5b86 e4bc 3389 ddbc
00000320: 0ade 193d 217b 98bc 52a4 a03c b2bc c43c
00000330: e6a9 82bc 8799 41bb 127d 133c 3e91 1d3d
00000340: a071 203d d5ed 2ebc aac3 44bd 3d58 51bb
00000350: 66da ffbc 5bc5 3cbd 4861 793c 1eef a13a
00000360: 624b bf3a ac35 9a3a ba62 30bd 5049 57bc
00000370: 91db 003d a400 22bd 4cbd 653b db06 b23c
00000380: e96e 28bd 1a45 723c a43a 3abd f7fd be3c
00000390: 7121 1a3d fc96 32bb c1c6 c43c 81ef 3c3c
000003a0: 2483 e73c ddd3 bebb 0d80 0bbd 5ffc 2cbc
000003b0: cd26 c4bc dfe2 b53b 7ce3 713c d078 16bd
000003c0: f34d a93b f2ad bc39 9aa3 053d 9f38 1e3d
000003d0: edb3 c03b ca9a a0bc 6ad1 543d bc04 eebc
000003e0: d5ec 58bc f51b 133d 3caa 64bd ae19 87bb
000003f0: 2d26 1f3d 5049 9ebb bc45 fe3c 126d 5d3b

fc1.bias f4 [128]
-0.02814935 0.029883292 0.05774852 -0.017715283 0.027362457 0.057836283 -0.04367102 0.05980028
0.008352708 -0.015701914 -0.021533974 0.0056054965 0.0063735587 0.022717386 -0.016615845 -0.05222315
0.015072145 0.016437164 0.017679144 -0.009421602 -0.008518032 0.032823656 -0.045459855 -0.018475106
0.012789425 -0.024475563 0.0049335905 0.021553002 -0.031111151 0.025780028 0.012901549 -0.028523743
-0.03360502 0.024206918 0.020678813 0.04878866 0.039157216 -0.032159086 0.043880366 -0.031749368
0.059808914 -0.018417299 -0.0062609375 0.023139888 0.023427924 -0.043252625 0.052357562 -0.018448869
-0.011279328 0.021019476 -0.013799721 0.052430253 0.04795646 -0.029499745 0.059985314 -0.018049974
0.0016537133 -0.019894311 0.00902535 -0.032444313 0.019558782 -0.031956818 0.049800307 0.02854504
0.013418924 -0.037123643 -0.023775613 0.006058286 0.026172144 -0.041250214 0.02213221 0.014807304
0.05835511 -0.0019573902 0.042179715 -0.04655746 -0.02640558 -0.011698919 -0.019401832 0.031817406
0.003964631 0.057854556 0.011602121 -0.0178514 -0.030376697 0.023942556 0.021670083 0.019094966
0.05327011 -0.049435534 -0.047050435 -0.012451448 0.06554619 0.066302925 -0.026230913 -0.017198006
-0.022618648 0.068745375 0.017326828 -0.017772697 0.035257753 0.062359437 0.0358289 0.0031968427
0.02310386 0.023003105 0.027707234 0.0245276 0.03346509 -0.048746508 0.03446296 -0.0032159316
0.0031785062 0.066408955 0.022378283 0.02364529 0.04012151 0.01648203 0.0037617364 0.019297997
0.036142062 0.021899829 -0.025931008 0.01939036 -0.025549287 -0.033506006 -0.03548838 -0.058267273
00000000: 7799 e6bc cecd f43c b689 6c3d a41f 91bc
00000010: 3b27 e03c bde5 6c3d 62e0 32bd 23f1 743d
00000020: ccd9 083c 4da1 80bc 0468 b0bc 50ae b73b
00000030: 49d9 d03b d019 ba3c f41d 88bc f1e7 55bd
00000040: 28f1 763c 3ba7 863c dad3 903c 105d 1abc
00000050: 378f 0bbc 1972 063d 1d34 3abd 1b59 97bc
00000060: bd8a 513c fa80 c8bc f5a9 a13b ec8f b03c
00000070: d0dc febc a330 d33c 0561 533c a0aa e9bc
00000080: 6ba5 09bd 964d c63c 9d66 a93c 9ed6 473d
00000090: 5163 203d 3fb9 03bd e6bb 333d a00b 02bd
000000a0: 31fa 743d e0df 96bc 8d28 cdbb dd8f bd3c
000000b0: ebeb bf3c aa29 31bd e274 563d 1522 97bc
000000c0: eecc 38bc 0931 ac3c 3a18 62bc 1bc1 563d
000000d0: fe6d 443d 73a9 f1bc 29b3 753d 8add 93bc
000000e0: 69c1 d83a 65f9 a2bc 10df 133c 54e4 04bd
000000f0: bd39 a03c 27e5 02bd 68fb 4b3d 4ad7 e93c
00000100: 0cdb 5b3c f60e 18bd 13c5 c2bc 9684 c63b
00000110: f766 d63c fcf5 28bd 9c4e b53c 569a 723c
00000120: c505 6f3d 8f47 00bb a3c4 2c3d 09b3 3ebd
00000130: 8450 d8bc d3ac 3fbc 97f0 9ebc f852 023d
00000140: bce9 813b e6f8 6c3d d316 3e3c 193d 92bc
00000150: 8dd8 f8bc 2e23 c43c 7585 b13c 0c6d 9c3c
00000160: c231 5a3d ea7c 4abd f5b7 40bd 2801 4cbc
00000170: 153d 863d d4c9 873d 36e2 d6bc d5e2 8cbc
00000180: be4a b9bc 60ca 8c3d fef0 8d3c 0c98 91bc
00000190: 6f6a 103d 9c6c 7f3d 53c1 123d 1f82 513b
000001a0: 4e44 bd3c 0271 bc3c 48fa e23c 1bee c83c
000001b0: b112 093d 6baa 47bd 0829 0d3d 61c2 52bb
000001c0: 7c4e 503b 6b01 883d a952 b73c c4b3 c13c
000001d0: 7456 243d 5205 873c 7787 763b d516 9e3c
000001e0: b309 143d 4567 b33c 446d d4bc 88d8 9e3c
000001f0: bd4c d1bc 983d 09bd 435c 11bd aaa9 6ebd

fc2.weight f4 [10, 128]
-0.07228708 0.13910718 -0.015597118 0.17826214 0.22110815 -0.11822632 -0.17132065 -0.008782666
-0.0038897537 0.036899485 -0.01923828 0.01993144 -0.22885066 -0.008985191 0.05938042 0.03289473
-0.25881374 0.17689618 -0.12915225 -0.22193211 -0.03719325 -0.05999608 -0.055106077 0.34865126
0.1204461 0.13178867 -0.20637277 0.17334864 -0.06385877 -0.018137803 -0.041654453 -0.036779974
-0.105766736 0.25321174 0.051945247 -0.13447756 0.09705924 0.37209886 -0.027723048 0.23778619
-0.3884967 0.1861194 0.024127267 -0.13329463 -0.12797937 0.2367844 -0.26081887 0.031716015
0.058580328 0.074608095 0.030391932 0.26808003 -0.02836494 0.15433358 0.03567499 0.2664779
-0.14271347 -0.040319916 -0.17730205 0.08820088 -0.015570743 0.31524953 0.07612537 0.22518538
-0.30389377 0.018668976 -0.16251485 -0.08260011 -0.16816428 0.098188385 0.0071211956 0.001832579
0.1711852 -0.20869665 -0.025405813 0.26049763 -0.17916602 0.2281754 -0.1746716 0.023892952
-0.2569881 -0.13567056 -0.06874265 -0.16019939 -0.15905745 0.14840934 -0.15909927 -0.004321958
0.04526441 0.026399508 0.21858928 0.070468545 0.16130067 0.13819869 0.03001329 -0.15430042
0.073849425 0.15320294 0.07372799 0.007228974 0.045548335 -0.13011874 0.0162665 -0.112247095
-0.054083653 -0.101384416 0.075807326 -0.02767866 -0.10096351 0.1884023 -0.03301873 0.001245531
-0.16077428 -0.122062474 0.20259662 -0.06206361 -0.094790936 -0.38841754 -0.002582284 -0.075668134
-0.022887245 -0.12125624 0.3068148 0.10526018 0.05678681 -0.037428 0.19405717 0.17411602
-0.07352399 -0.25697353 0.15073392 -0.08453855 -0.0018266863 0.28816405 0.23191178 -0.037631772
0.024272285 -0.065417044 -0.016590256 -0.0815533 0.13081291 0.00960949 -0.024770455 -0.083498426
0.13692339 0.27718252 -0.044890027 -0.057777148 0.08874636 -0.05809481 -0.09058593 0.07876458
-0.14537394 -0.073550224 0.07389262 -0.06610861 0.0097265905 -0.12629342 -0.16817032 -0.07340339
0.1078394 -0.03256373 0.1800632 0.25379825 0.033923797 -0.2328261 0.026513295 0.042738784
0.18379807 -0.08597776 -0.10447828 0.114722624 -0.0165495 0.09422837 -0.11139249 0.015834356
0.07593625 0.070354916 -0.12878239 0.106209815 -0.382741 0.1559562 0.18689205 0.055222895
-0.050894786 -0.052807447 -0.15223677 -0.051182278 -0.19615634 0.089090295 -0.20054334 -0.13970774
-0.026806505 0.043791562 0.02424356 -0.13133016 -0.019948637 0.015459683 -0.18422931 0.0051345443
-0.04351394 -0.18233626 0.25677818 0.011544535 0.13414755 0.20335951 0.18218103 -0.022148719
0.2708828 0.14993694 0.06614878 0.20290321 -0.17449915 0.053239547 -0.39041156 -0.1854514
-0.118286766 -0.07177006 0.19438674 0.016531939 0.059205983 0.17582567 0.06491261 -0.031949595
-0.047046125 -0.16188069 0.073777355 0.082696676 -0.17333896 0.27669773 -0.19795497 0.31434822
-0.027345829 -0.07837943 0.056812186 0.22387548 0.100194335 -0.112210765 0.28449237 0.06635356
0.25035733 -0.06461235 0.029144367 -0.13275959 -0.059127633 0.24056534 -0.13556671 -0.11526337
-0.097781494 -0.024602834 0.05169571 -0.00074298715 -0.17777994 -0.06665331 -0.08610335 -0.19006729
00000000: 400b 94bd 1d72 0e3e 0e8b 7fbc 5a8a 363e
00000010: 2d6a 623e a420 f2bd ae6e 2fbe 2ce5 0fbc
00000020: 3deb 7ebb ea23 173d 9999 9dbc 4247 a33c
00000030: d457 6abe 9f36 13bc e238 733d a0bc 063d
00000040: 3c83 84be 4624 353e 7d40 04be 2c42 63be
00000050: f357 18bd 73be 75bd e9b6 61bd 6b82 b23e
00000060: 72ac f63d 9cf3 063e 6253 53be 4e82 313e
00000070: 63c8 82bd bb95 94bc dc9d 2abd 99a6 16bd
00000080: 3b9c d8bd f8a4 813e 8ac4 543d 7cb4 09be
00000090: ffc6 c63d be83 be3e 721b e3bc 397e 733e
000000a0: 0ae9 c6be 1696 3e3e 8ca6 c53c 637e 08be
000000b0: 060d 03be 9c77 723e 0d8a 85be a7e8 013d
000000c0: edf1 6f3d 21cc 983d 80f8 f83c c941 893e
000000d0: 975d e8bc 9f09 1e3e f01f 123d cb6f 883e
000000e0: 7b23 12be 7f26 25bd ab8e 35be aaa2 b43d
000000f0: 6e1c 7fbc 6368 a13e 9ee7 9b3d ff96 663e
00000100: f797 9bbe aeef 983c 4b6a 26be 3f2a a9bd
00000110: 4233 2cbe fe16 c93d eb58 e93b 2633 f03a
00000120: 2c4b 2f3e 93b4 55be da1f d0bc f25f 853e
00000130: 4c77 37be d0a6 693e 1ddd 32be 27bb c33c
00000140: f293 83be 39ed 0abe f2c8 8cbd 4f0b 24be
00000150: f5df 22be 9ef8 173e ebea 22be 369f 8dbb
00000160: 2d67 393d c843 d83c ded5 5f3e d051 903d
00000170: 012c 253e f583 0d3e 6ede f53c ee00 1ebe
00000180: 5e3e 973d 3be1 1c3e b3fe 963d 07e1 ec3b
00000190: e490 3a3d d93d 05be 5341 853c cee1 e5bd
000001a0: d286 5dbd a2a2 cfbd df40 9b3d 5bbe e2bc
000001b0: f5c5 cebd 88ec 403e a63e 07bd 1641 a33a
000001c0: 03a2 24be e4fb f9bd 7d75 4f3e 6936 7ebd
000001d0: c021 c2bd aade c6be 893b 29bb e5f7 9abd
000001e0: 087e bbbc 3155 f8bd d416 9d3e a692 d73d
000001f0: 4999 683d 1a4e 19bd ecb6 463e 784b 323e
00000200: bf93 96bd 0992 83be fe59 1a3e 8c22 adbd
00000210: 6c6d efba 3d8a 933e 487a 6d3e c623 1abd
00000220: acd6 c63c 5ff9 85bd 4ae8 87bc 6b05 a7bd
00000230: d2f3 053e 1f71 1d3c 69eb cabc 3901 abbd
00000240: a535 0c3e deea 8d3e 9bde 37bd bba7 6cbd
00000250: a7c0 b53d d3f4 6dbd 1e85 b9bd 534f a13d
00000260: e8dc 14be 80a1 96bd 0455 973d f363 87bd
00000270: 475c 1f3c 1053 01be d734 2cbe 8454 96bd
00000280: e7da dc3d 8c61 05bd 7d62 383e d8f1 813e
00000290: aef3 0a3d f769 6ebe 6932 d93c dd0e 2f3d
000002a0: 9035 3c3e 1c15 b0bd b5f8 d5bd b2f3 ea3d
000002b0: d192 87bc cefa c03d bf21 e4bd 0db7 813c
000002c0: 7784 9b3d 3d16 903d 88df 03be 8884 d93d
000002d0: a1f6 c3be fbb2 1f3e a160 3f3e 6731 623d
000002e0: 0d77 50bd 9f4c 58bd f5e3 1bbe 82a4 51bd
000002f0: 35dd 48be f974 b63d 3c5b 4dbe 8c0f 0fbe
00000300: 5199 dbbc c85e 333d 6e9a c63c 6a7b 06be
00000310: 536b a3bc 9c4a 7d3c 9ca6 3cbe ae3f a83b
00000320: ac3b 32bd 5bb6 3abe 6e78 833e 4a25 3d3c
00000330: fa5d 093e 7a3d 503e aa8d 3a3e 3b71 b5bc
00000340: 26b1 8a3e 1289 193e 0379 873d dcc5 4f3e
00000350: e8af 32be b611 5a3d 06e4 c7be f9e6 3dbe
00000360: 5540 f2bd 2efc 92bd 510d 473e fd6d 873c
00000370: f981 723d a50b 343e e7f0 843d 94dd 02bd
00000380: 70b3 40bd 0dc4 25be 9518 973d e05c a93d
00000390: c57f 31be 53ab 8d3e b5b4 4abe 40f2 a03e
000003a0: 5c04 e0bc 6585 a0bd e5b3 683d 9d3f 653e
000003b0: b032 cd3d c2ce e5bd fca8 913e 60e4 873d
000003c0: d62e 803e 7b53 84bd 2bc0 ee3c 21f2 07be
000003d0: d12f 72bd c356 763e 00d2 0abe 340f ecbd
000003e0: aa41 c8bd e28b c9bc e1be 533d 06c5 42ba
000003f0: f20b 36be 8881 88bd f456 b0bd 00a1 42be

fc2.bias f4 [10]
-0.033161897 -0.04055349 -0.07994314 -0.019211005 -0.009145749 -0.06633123 0.028209688 -0.07546256
0.25206885 0.053969648
00000000: c5d4 07bd 6b1b 26bd 3bb9 a3bd 6660 9dbc
00000010: 0dd8 15bc abd8 87bd 0118 e73c 1d8c 9abd
00000020: 2b0f 813e 470f 5d3d

momentum_buffer f4 [16, 1, 3, 3]
0.023909796 0.052162845 0.059550397 -0.012845203 0.007945571 0.0026837513 -0.014737202 -0.05582663
-0.031131959 -0.06761685 -0.102759406 -0.06832163 -0.11342927 -0.08727754 -0.08036902 -0.081226796
-0.08851884 -0.08735267 0.03772975 0.021367297 0.03392847 -0.005948743 0.012355942 0.02857704
-0.06947776 -0.07172078 0.0018952526 -0.0029484145 0.026712365 0.06209974 0.04964103 0.0657806
0.075182214 0.013572641 0.042172328 -0.00986357 -0.05836301 -0.050782114 0.08099697 -0.09628115
0.015870538 0.064376 -0.050704546 0.0028813817 0.07744973 -0.018668722 -0.0048081437 0.018912062
-0.044537365 -0.030273028 0.0009626169 -0.07666874 -0.059609193 -0.03571609 -0.113301955 -0.15158717
-0.15229595 -0.12743422 -0.19590324 -0.21776521 -0.13977969 -0.15301967 -0.18954888 0.060026802
-0.037359297 -0.0590529 0.021877976 -0.018833905 -0.009747699 0.033834856 0.064620554 0.039733786
0.04330816 0.07748898 0.083798364 0.056253694 0.07093661 0.083029374 0.0709765 0.09164201
0.08182259 -0.033158623 -0.005718043 0.013751498 0.015466256 0.011101112 0.019236976 0.04380934
0.03831273 0.02877307 0.013494213 0.07888058 0.054424096 -0.0062067993 0.011310291 0.018665291
-0.030041577 -0.0240891 0.0032360516 -0.07036927 -0.145666 -0.17317921 -0.12504575 -0.19554308
-0.21698421 -0.0715514 -0.10503825 -0.18708949 -0.015171319 -0.13202088 0.08621937 0.076677285
-0.13581872 -0.013140406 0.14893596 0.028269686 -0.05295644 0.045914885 0.022085994 -0.0146341575
0.01615594 -0.005741339 -0.0028816299 0.0062052924 0.026598625 0.03717631 0.087301105 0.051355787
0.03921899 0.07943247 -0.055306688 -0.063637726 0.028274663 0.018650066 -0.0048728287 0.025823172
0.051422708 0.15125407 0.042151965 0.10617321 0.14473826 0.038136423 0.13518554 0.132959
00000000: 7ade c33c b5a8 553d 1eeb 733d b074 52bc
00000010: 242e 023c e0e1 2f3b 4e74 71bc 77aa 64bd
00000020: 7308 ffbc b47a 8abd 8673 d2bd 36ec 8bbd
00000030: 9b4d e8bd 91be b2bd 8398 a4bd 3c5a a6bd
00000040: 5e49 b5bd f5e5 b2bd 838a 1a3d 780a af3c
00000050: 94f8 0a3d aced c2bb 9470 4a3c 661a ea3c
00000060: 5b4a 8ebd 58e2 92bd 206a f83a 303a 41bb
00000070: e4d3 da3c 4c5c 7e3d 6554 4b3d fbb7 863d
00000080: 22f9 993d c85f 5e3c e4bc 2c3d d09a 21bc
00000090: 0d0e 6fbd e800 50bd bde1 a53d 0d2f c5bd
000000a0: ee02 823c 90d7 833d 92af 4fbd 90d5 3c3b
000000b0: f79d 9e3d 26ef 98bc a28d 9dbb 78ed 9a3c
000000c0: d06c 36bd 24ff f7bc 2058 7c3a 8004 9dbd
000000d0: c528 74bd 094b 12bd db0a e8bd ab39 1bbe
000000e0: 78f3 1bbe 1e7e 02be dc9a 48be d8fd 5ebe
000000f0: 6822 0fbe 30b1 1cbe 1a19 42be aade 753d
00000100: 1006 19bd 74e1 71bd 7139 b33c 9049 9abc
00000110: d0b4 1fbc 6b96 0a3d c857 843d e5bf 223d
00000120: e663 313d 8bb2 9e3d 7a9e ab3d 466a 663d
00000130: 3747 913d 4e0b aa3d 215c 913d ceae bb3d
00000140: 9a92 a73d 56d1 07bd 6c5e bbbb f74d 613c
00000150: 2e66 7d3c 70e1 353c dd96 9d3c 6c71 333d
00000160: cfed 1c3d 80b5 eb3c d516 5d3c 248c a13d
00000170: cdeb 5e3d 6862 cbbb cc4e 393c f4e7 983c
00000180: c119 f6bc 8156 c5bc f013 543b c41d 90bd
00000190: 7829 15be e455 31be fe0b 00be 723c 48be
000001a0: 1c31 5ebe 8a89 92bd 4b1e d7bd 6394 3fbe
000001b0: 2091 78bc 7b30 07be c893 b03d fb08 9d3d
000001c0: 1014 0bbe dc4a 57bc ab82 183e d495 e73c
000001d0: dae8 58bd 3f11 3c3d b0ed b43c 1bc4 6fbc
000001e0: 7659 843c d821 bcbb bad9 3cbb c455 cb3b
000001f0: 5ce5 d93c 3046 183d ecca b23d 725a 523d
00000200: 17a4 203d 7ead a23d 4489 62bd 7f54 82bd
00000210: 44a0 e73c 06c8 983c 40ac 9fbb 1e8b d33c
00000220: 9ea0 523d 59e2 1a3e 8aa7 2c3d 5771 d93d
00000230: 4436 143e f034 1c3d 146e 0a3e 6726 083e

momentum_buffer f4 [16]
-0.02691887 0.11709685 0.13661118 -0.02821721 -0.16046968 0.09288738 0.21217297 -0.12306872
-0.022231322 0.05695039 -0.0022848062 0.22237116 -0.24759753 0.022408739 -0.12276294 -0.18589735
00000000: f684 dcbc 79d0 ef3d cde3 0b3e c727 e7bc
00000010: 2a52 24be bd3b be3d df43 593e 740b fcbd
00000020: 761e b6bc d044 693d b0bc 15bb 44b5 633e
00000030: 358a 7dbe 8892 b73c 236b fbbd e05b 3ebe

momentum_buffer f4 [32, 16, 3, 3]
-0.031565793 -0.013049144 -0.02507386 -0.012500293 -0.013909139 -0.03334593 -0.027744345 -0.02252327
-0.03201553 -0.045842048 -0.059339866 -0.06442084 -0.041880053 -0.059142392 -0.067189835 -0.047675118
-0.05787432 -0.061438587 -0.01830319 -0.0029050957 -0.015646074 -0.024473462 -0.0028389157 0.0013998011
-0.025230784 -0.0002337983 -0.011856054 -0.031231686 -0.0054152897 -0.022157762 -0.03603093 -0.0086864745
-0.02839443 -0.031545654 -0.010650424 -0.031887934 -0.037281666 -0.03318164 -0.008028167 -0.052834287
-0.040859718 -0.0019708993 -0.06156301 -0.029458258 -0.002001 -0.0014736688 -0.0024857705 -0.0125626875
-0.0104492055 -0.0039138775 0.0004915516 -0.01449201 -0.006851553 -0.008276984 -0.06708119 -0.09255673
-0.101137795 -0.078970745 -0.101070695 -0.08857315 -0.06985012 -0.093498655 -0.08324342 0.0022784513
-0.0031143543 -0.019304337 -0.017771902 -0.0074960412 0.0027144472 -0.009293938 -0.0038508163 -0.014543236
-0.06625601 -0.05829108 -0.032653853 -0.043160036 -0.043189842 -0.03356111 -0.041989796 -0.044668768
-0.02212881 -0.03213882 -0.018476225 -0.0048825266 -0.011939506 -0.01414018 -0.011909607 -0.013288359
-0.015173 -0.010680751 -0.02639334 0.0041638915 -0.005130482 -0.024002552 -0.0016136221 -0.016551996
-0.012298025 -0.0052948305 -0.017481266 -0.10001975 -0.1183516 -0.123791836 -0.08349092 -0.12001268
-0.11245102 -0.104584605 -0.119748674 -0.10473713 -0.015170321 -0.0021675895 -0.008017941 -0.014323533
-0.0027365114 -0.0037569609 -0.008270433 -0.0039965035 -0.006124381 -0.003718234 -0.0057256175 -0.013870816
-0.029828368 -0.030301375 -0.009235032 -0.05050282 -0.022708364 -0.008285342 -0.06317084 -0.06815576
-0.066759475 -0.04889483 -0.061398227 -0.07469712 -0.058057323 -0.06629065 -0.06853472 -0.045920223
-0.048813656 -0.018650161 -0.052053228 -0.05629238 -0.012724466 -0.06458022 -0.042871375 -0.011942242
0.019444186 0.06838935 0.03359146 0.013141803 0.032500286 0.022932686 0.033020057 0.029450314
0.0064311856 0.027191637 0.04384519 0.022851072 0.019483045 0.02017106 0.016576765 0.038165435
0.026262343 0.02039443 -0.00855381 0.0015683925 0.018239945 0.040621962 0.057221204 0.058572583
-0.012430262 0.004698012 0.036173567 0.017916389 0.070669375 0.043371852 0.036886014 0.07929599
0.04615803 0.014582413 0.04116082 0.01600552 0.051592357 -0.001323855 0.0069451453 0.009851514
0.036956202 0.043488927 0.009275605 0.013050169 0.07075886 -0.0044403803 0.006672994 0.0118823
0.043806054 0.046470772 0.029703492 -0.0007001889 0.004500021 0.051293373 0.03861085 0.037021387
0.01856593 0.046824347 0.025513422 0.016641587 0.042967036 0.036662623 0.041067615 -0.0066584963
0.01826415 0.0064766943 0.04305077 0.041363217 0.024875194 -0.006030092 0.0063386546 0.0544509
0.03670426 0.05647342 0.064145416 0.032617945 0.03719317 0.029982077 0.024678048 0.02083471
0.0025184925 0.035396777 0.08306227 0.072595626 0.017734533 0.015491178 0.036154456 0.019243425
0.012062536 -0.002737325 0.011818192 0.0819155 0.09262859 0.019267552 0.040398747 0.040120233
0.040402845 0.0344906 0.0015609501 0.05820224 0.06325116 0.033719484 0.041151248 0.023692366
0.009910106 0.053954042 0.041292615 0.043950897 0.019067626 0.0020717385 0.0085002845 0.015449753
00000000: 224b 01bd 14cc 55bc b267 cdbc 07ce 4cbc
00000010: 28e3 63bc be95 08bd 1c48 e3bc b982 b8bc
00000020: b722 03bd dfc4 3bbd 5c0e 73bd 13ef 83bd
00000030: 6b8a 2bbd 4b3f 72bd d39a 89bd fc46 43bd
00000040: 9f0d 6dbd 07a7 7bbd 92f0 95bc 6b63 3ebb
00000050: 322c 80bc 927c c8bc 1a0d 3abb 8879 b73a
00000060: cab0 cebc c127 75b9 e53f 42bc 98d9 ffbc
00000070: be72 b1bb 3284 b5bc 2b95 13bd b751 0ebc
00000080: 709b e8bc 0436 01bd 1e7f 2ebc ec9c 02bd
00000090: a9b4 18bd 79e9 07bd 9388 03bc c468 58bd
000000a0: 855c 27bd 342a 01bb 7f29 7cbd 7252 f1bc
000000b0: 3623 03bb 1f28 c1ba 4fe8 22bb bbd3 4dbc
000000c0: 2533 2bbc fc3f 80bb 78db 003a e56f 6dbc
000000d0: fe82 e0bb 309c 07bc dd61 89bd 628e bdbd
000000e0: 5521 cfbd 6abb a1bd 27fe cebd d765 b5bd
000000f0: 940d 8fbd 397c bfbd 877b aabd 1252 153b
00000100: 321a 4cbb 2124 9ebc 6196 91bc 5aa1 f5bb
00000110: dee4 313b 9a45 18bc fa5d 7cbb c146 6ebc
00000120: 3bb1 87bd a1c2 6ebd 0cc0 05bd 94c8 30bd
00000130: d5e7 30bd 6077 09bd 7efd 2bbd 99f6 36bd
00000140: 7a47 b5bc ffa3 03bd 745b 97bc 9afd 9fbb
00000150: eb9d 43bc 37ac 67bc 8320 43bc 6bb7 59bc
00000160: 2d98 78bc 51fe 2ebc d936 d8bc 4171 883b
00000170: 9a1d a8bb 00a1 c4bc 2c80 d3ba 0d98 87bc
00000180: a87d 49bc 4280 adbb df34 8fbc 28d7 ccbd
00000190: 5362 f2bd 9386 fdbd 4afd aabd 35c9 f5bd
000001a0: b84c e6bd 7430 d6bd cb3e f5bd 6c80 d6bd
000001b0: f08c 78bc 1e0e 0ebb af5d 03bc 40ad 6abc
000001c0: 0b57 33bb 5837 76bb b680 07bc 1af5 82bb
000001d0: 08af c8bb 9dad 73bb f69d bbbb 6b42 63bc
000001e0: 9f5a f4bc 973a f8bc 884e 17bc 0cdc 4ebd
000001f0: e406 babc 3ebf 07bc b75f 81bd 3f95 8bbd
00000200: 31b9 88bd f245 48bd b57c 7bbd cefa 98bd
00000210: 84cd 6dbd 64c3 87bd ee5b 8cbd d816 3cbd
00000220: d4f0 47bd 39c8 98bc c435 55bd d792 66bd
00000230: 477a 50bc a242 84bd e599 2fbd 65a9 43bc
00000240: 6a49 9f3c b70f 8c3d 3397 093d b850 573c
00000250: 051f 053d 54dd bb3c 0a40 073d c941 f13c
00000260: b2bc d23b ffc0 de3c 0497 333d 2c32 bb3c
00000270: e89a 9f3c c73d a53c ffcb 873c 5c53 1c3d
00000280: 2024 d73c 3812 a73c 4825 0cbc 8592 cd3a
00000290: f06b 953c 3763 263d c860 6a3d cee9 6f3d
000002a0: 4ca8 4bbc c8f1 993b bc2a 143d 64c5 923c
000002b0: 1bbb 903d afa6 313d ca15 173d f065 a23d
000002c0: 3410 3d3d 13eb 6e3c 3f98 283d 021e 833c
000002d0: 8252 533d 3485 adba 1a94 e33b 3f68 213c
000002e0: 635f 173d 7221 323d b5f8 173c 60d0 553c
000002f0: 05ea 903d 9c80 91bb 21a9 da3b faad 423c
00000300: fa6d 333d 2358 3e3d bd54 f33c e28c 37ba
00000310: ea74 933b 0019 523d 6926 1e3d bda3 173d
00000320: 9417 983c e3ca 3f3d 8601 d13c f053 883c
00000330: 34fe 2f3d 8c2b 163d 8436 283d 842f dabb
00000340: b39e 953c 733a d43b 0156 303d 7a6c 293d
00000350: 10c7 cb3c 1498 c5bb 7db4 cf3b e807 5f3d
00000360: 3557 163d ac50 673d ac5e 833d 659a 053d
00000370: de57 183d f99c f53c 9e29 ca3c 8ead aa3c
00000380: 4b0d 253b 36fc 103d 8d1c aa3d 04ad 943d
00000390: 0348 913c b6ce 7d3c b216 143d 63a4 9d3c
000003a0: f1a1 453c b164 33bb 17a1 413c 50c3 a73d
000003b0: 0fb4 bd3d fcd6 9d3c 2879 253d 1d55 243d
000003c0: 747d 253d 0446 0d3d cb98 cc3a 7965 6e3d
000003d0: d389 813d 711d 0a3d 368e 283d 7e16 c23c
000003e0: ff5d 223c eafe 5c3d 7222 293d db05 343d
000003f0: b633 9c3c 01c6 073b c744 0b3c f620 7d3c

momentum_buffer f4 [32]
-0.06090455 0.03156359 0.037723962 0.0057378784 1.7492566e-05 -0.018207632 0.04091834 0.030639295
0.046692587 0.026362753 -0.0073560737 -0.008547981 -0.0066892467 0.018769924 -0.0898263 -0.024284536
0.00084051106 -0.08245057 -0.018949138 0.01779454 0.0117468415 0.03215201 0.049242564 -0.0973599
-0.03466017 0.04582332 -0.021097759 0.043001503 0.014971171 0.045009732 -0.013770664 -0.0039317273
00000000: 0d77 79bd d348 013d 7184 1a3d d004 bc3b
00000010: 00bd 9237 2c28 95bc fd99 273d 42ff fa3c
00000020: ba40 3f3d b3f6 d73c 380b f1bb d50c 0cbc
00000030: 7831 dbbb 62c3 993c daf6 b7bd 5df0 c6bc
00000040: be55 5c3a d8db a8bd 393b 9bbc dbc5 913c
00000050: d375 403c d3b1 033d 92b2 493d a164 c7bd
00000060: d3f7 0dbd 3cb1 3b3d 35d5 acbc 5822 303d
00000070: a449 753c 205c 383d 5a9e 61bc b8d5 80bb
