src/models/checkpoints/simple_digit_model_end.pt (torch, 794167 bytes, 20 tensors)

conv1.weight f4 [16, 1, 3, 3]
00000000: bf42 e6be a767 043e 043e 733e e8a1 d3be
00000010: 8efc 38bf 0ae9 e2be 53c6 733d 8e73 bf3d
00000020: dd84 03bf 0d6a d33e 662b 21bf e391 9ebe
00000030: 7163 333f 3734 0cbf 1739 22bf 4750 3c3f
00000040: e855 483f 6914 c13d fbea dcbd 0893 b7be
00000050: 1d81 51be f8c3 b0bd 2a93 89be 08af a5be
00000060: 16df a8be 7100 c63d d29a 133f 83b2 263f
00000070: 2ad7 483f b076 4a3f 1f15 acbd 3927 55bc
00000080: 0a75 983e cb66 77bf 3712 55bf 56f1 debe
00000090: 344c b8be 9543 96be ee3b 9d3e 79ce 0bbf
000000a0: 2a73 babe 53d7 253f 6e40 2abf b988 0b3f
000000b0: e05a 2e3f 9c9b 8fbe b2bb 543e 6cb3 123f
000000c0: f6b3 ebbe 5419 e0be b7fc 273f 807d 45bd
000000d0: 9e22 1ebf fa18 aa3e dd22 a3be 4943 b53d
000000e0: 1217 bcbd 42fc 96be 6680 13bf dbf0 9fbe
000000f0: e4e4 123f cc82 103f d8f7 9e3e 4015 4d3e
00000100: 3b8c 353f 4f88 12bf 9604 0b3f 09f9 6f3e
00000110: f667 76bf 3f20 053e 591b fb3e 656d 5fbe
00000120: 73a4 71bd 1d56 d9bd a214 2fbf 300d 69bd
00000130: fb83 5f3e 4902 e0be c78d dfbe 2e37 23bf
00000140: 09db c5be 4cc7 bf3d ebda 0f3f 4733 033e
00000150: d270 0abe 10b5 213e 2c82 8d3e ab4f 25bf
00000160: f7a7 043d 9a66 303f e7de 8cbe df2d 65be
00000170: e077 303e 83d6 6dbe b098 c93e f5d6 a43e
00000180: 8a11 e3bc 1930 6fbe f6d1 8fbe eaad 46bf
00000190: 3b79 3bbd 2f69 0e3f ab65 e9be c0aa 133f
000001a0: 02dd 9c3e 98e1 083f 81a1 343f 53f7 9abd
000001b0: f2b5 3ebd 71b0 1dbf afb8 66bf 9a09 ca3e
000001c0: 7623 533e f6dd 3b3e 8882 753e 31be 1c3f
000001d0: d0b9 193f 8f4d 4fbe ea7b b03e 8819 f53e
000001e0: ed25 9e3d 97ed 3c3f db86 563f 58b5 d93b
000001f0: 074c 8a3e d2cb 6f3e 6b70 90be 85a0 b6be
00000200: 28bd 173f 01ce 773e 4c69 1f3f 3b3a 033f
00000210: a8ce 993e 7eca 96be 2261 d5be 4cc1 6a3f
00000220: e67b 61be e481 823e c69b 1cbe 91a7 a63c
00000230: ab9c 50be bd56 dd3d 72b2 c5be 7ecf e1be
-0.44972798 0.12930165 0.23754126 -0.41334462 -0.7226037 -0.4431842 0.05951531 0.09348212
-0.5137461 0.41291848 -0.62956846 -0.30970678 0.7007361 -0.54767174 -0.6336836 0.73559994
0.7825608 0.09427721 -0.107870065 -0.35854363 -0.20459409 -0.08631128 -0.2687009 -0.323601
-0.329827 0.09668053 0.5765811 0.6511614 0.78453314 0.7908735 -0.08402466 -0.01300984
0.29776794 -0.96641225 -0.8323092 -0.435435 -0.35995638 -0.29348436 0.30709785 -0.5461193
-0.36415988 0.64781684 -0.6650456 0.545055 0.68107414 -0.28048408 0.20774725 0.57305026
-0.46035737 -0.43769324 0.6561999 -0.04821539 -0.6177157 0.3322218 -0.31862536 0.08850724
-0.09184088 -0.29489332 -0.57617795 -0.31238446 0.5738051 0.5644958 0.31048465 0.20027637
0.709171 -0.5723924 0.5430387 0.23434843 -0.9625238 0.13000582 0.49044302 -0.21819074
-0.05899472 -0.10612128 -0.6839086 -0.056897342 0.2182769 -0.43751743 -0.43662855 -0.6375607
-0.38643673 0.09364185 0.5619342 0.1281253 -0.135196 0.15791726 0.27638376 -0.6457469
0.032386746 0.6890656 -0.2751381 -0.2238078 0.17233229 -0.23226361 0.39374304 0.3219525
-0.027718324 -0.23358192 -0.28089875 -0.7760912 -0.04576991 0.5562925 -0.4558538 0.5768242
0.30637366 0.5346923 0.70558935 -0.075667046 -0.046560235 -0.61597353 -0.90125555 0.3946045
0.20618996 0.1834639 0.23975575 0.6122771 0.6004915 -0.2024443 0.3446954 0.4787104
0.077220775 0.73800033 0.83799523 0.0066439323 0.2701113 0.23417595 -0.28210768 -0.35669342
0.59273005 0.24199678 0.62270045 0.5126073 0.3004048 -0.29451364 -0.4167567 0.917012
-0.2201992 0.25489724 -0.15293798 0.020343574 -0.20372264 0.1080756 -0.38612705 -0.44103616

conv1.bias f4 [16]
00000000: ecbb 7ebf 6c9d 67bd 3b56 cbbe 04ff 9ebe
00000010: eea8 a8be 30f3 f1be d02e 4abe 58a6 6ebe
00000020: 81bb 91bf 35c0 2dbe 7da4 0a3e 9edd 893e
00000030: 70bd a83d c0ae bcbe afcc a13e 16bd 9fbe
-0.99505496 -0.056546614 -0.39714226 -0.31053936 -0.32941383 -0.4725585 -0.1974442 -0.23305643
-1.1385347 -0.16967852 0.1353931 0.26926893 0.08239257 -0.36852074 0.31601474 -0.3119895

conv2.weight f4 [32, 16, 3, 3]
00000000: 5a69 bfbd deaf 213d 179f 0a3c 9ced 8abd
00000010: 8a3e 903c 7ad4 44bc 4e95 f6bd a9a7 c33c
00000020: 3c8b 843c c241 fa3d f701 833d 8353 84bd
00000030: 34e5 113e 31af 333d 9193 ed3c 51d5 683d
00000040: a64f ef3d b181 d33d e522 a6bd 9fa5 acbc
00000050: 8a3f 52bc f0ff 45bd a069 7bbd efa9 42bd
00000060: a327 0abd 7328 afbd d2e4 063c 2280 b1bd
00000070: 151f 85bd 0a7c 2dbd d156 adbd 1bc9 adbd
00000080: 0b0f 8ebd 7954 d5bd 3472 0cbe 17c0 77bd
00000090: 9e59 8cbd 83f9 4b3d 695a 193d 97ee acbd
000000a0: 8190 a0bd 1795 073e b52a e7bb 321f 20bd
000000b0: 677e 2ebd 1521 913d 8cc5 acba ec7a b3bc
000000c0: b552 7f3d b804 1f3b db0d a33d 948d 7a3c
000000d0: 07c1 a43d 6caf 8dbc 91ea 38bc 6317 303d
000000e0: ecf3 d0bc fb21 54bb 0605 233d cd19 303d
000000f0: 102d 7fbb ce09 b6bd 96cc a8bc 5f92 a93d
00000100: e5c0 0bbd 65e3 803d 2694 793d 6021 933d
00000110: ea88 603d a240 963d a2f4 baba d54b 2ebd
00000120: 99ae acbd 7a19 183d 79c9 44bd da77 a2bb
00000130: 0228 debc b9e2 423d 289e 203d 1911 ab3d
00000140: da88 83bd bd10 bc3d 587c 64bc a286 903d
00000150: c6e0 9e3d eebf c0bc f3b3 88bd 7e22 873c
00000160: d142 23bb 876a a43d f443 03bd 3041 48bb
00000170: e885 d2bb 2cb9 b9bd e506 71bc e5d6 cd3d
00000180: c8f0 20bd becb 27bd f120 05bc 6f3a aabd
00000190: 1f02 a43c e766 ac3d 48fa 05bd 95f6 5cbd
000001a0: 9147 953d 56c6 5c3c 6b36 78bd 5817 79bd
000001b0: 4734 b43c 1253 493c a336 c8bc 66bc 273d
000001c0: b277 b43d 0c9a afbd ab97 143c 69a1 52bc
000001d0: ada9 c43d c84e 083d 3e0a 6abd debb 07bc
000001e0: 1083 e53d 6a71 5d3d 0c7d 8a3c 5f65 f93d
000001f0: a719 e23c 1dd1 b93c 26ab 053c 6d1d 003d
00000200: 8ef9 90bd 8481 203a 5d1d 313d 863c 87bd
00000210: a3b8 79bd 8b8b 0fbd f3bd f23c 7844 8abd
00000220: 9641 6a3d 4804 86bd f992 54bd 6835 fcbc
00000230: 5355 9dbc 44e2 98bd 0d59 9bbd b048 dd3c
00000240: c085 38be 2cc7 c1bd 978f aabd 6d99 ddbd
00000250: 707f 0fbe 587d 01be a539 20be c54b 07be
00000260: 9410 33be c8be 513e 3431 b5bd 204e f7bc
00000270: c182 fd3d 4f57 bb3d daca 0a3e 648f 983e
00000280: a34d 0f3e 7299 993d b897 99bc 1036 553d
00000290: 625a d73c b09b c0bd b301 8abd 2836 153e
000002a0: 9230 4dbe faed d6bd 15b3 d1bb 54c3 23bd
000002b0: 3a32 b7bd 9c67 4cbc 0100 1abe 4ea7 99bd
000002c0: 2ebd dabd 9b22 96bd 7fa4 7e3d 3a1e 8e3d
000002d0: fc94 86bd 35ec 003e 2dfd 7f3d 3345 43bc
000002e0: 100a 3dbd 8af3 e13d d154 72be 5284 6bbe
000002f0: 59ae 16bc 52be c03d a7bc 3abc a7ad 16be
00000300: 7908 6f3d 6573 94bb bda6 fcbd 2a73 113e
00000310: 9a93 97bc 51c0 83bc 7a10 01be ca5f a73b
00000320: 263c d33b 3444 f7bd 6864 a9ba dced f33d
00000330: cccb b1bd 76d4 153e 6cb6 f13d 3bdf e83d
00000340: 48a6 c93d 589b 2c3d 5860 0d3e ef92 f43d
00000350: 85f6 d13d 0a2f 683d 525f 1ebd 2b9a 17be
00000360: 8247 943c 1b8d dcbd 6b45 8b3c a516 b43c
00000370: 7d7d 1bbe 907f 11bd c875 38be 29a9 7bbe
00000380: 9aa5 86be f87a bb3c 8250 f8bd d292 9cbd
00000390: cfb0 23bd 33a4 e8bb fe27 56be 2ff7 833c
000003a0: 5544 5f3b ca01 3dbe 690c 343c 9a3b e73c
000003b0: 2d7c 85bc fa32 a13b fe54 c43d 9b05 cb3d
000003c0: ce9e 2abd 8aed 94bc 30e1 033d 0dab 8a3c
000003d0: 020e 823e 5320 203e 4932 093d e4f9 143e
000003e0: c820 913c 2f8d d0bd a9fd 8dbd 24c7 013e
000003f0: 466a 2fbd 3ea2 44bd f3bd 563d 24f5 c2bd
-0.09346266 0.03947436 0.008460782 -0.06783602 0.017607946 -0.012013549 -0.12040196 0.023883658
0.016179673 0.122195736 0.06396859 -0.06461241 0.1424759 0.043868247 0.02900103 0.05684406
0.116851136 0.10327471 -0.08112124 -0.021075068 -0.012832532 -0.048339784 -0.06138003 -0.047525343
-0.033729207 -0.08552637 0.008233266 -0.086670175 -0.06500069 -0.04235462 -0.084638245 -0.084856234
-0.06936463 -0.104165025 -0.1371544 -0.060485926 -0.068530306 0.0497985 0.037439737 -0.08443945
-0.07840062 0.13240467 -0.0070546516 -0.03909225 -0.042601015 0.07086388 -0.0013181432 -0.0219092
0.062334735 0.0024264287 0.07961627 0.015292544 0.080446295 -0.017295562 -0.011286394 0.042991053
-0.025506936 -0.0032368887 0.039799713 0.042993356 -0.0038936771 -0.08888589 -0.020605367 0.08279871
-0.034119505 0.06293372 0.0609323 0.071841 0.05481807 0.073365465 -0.001426358 -0.042552788
-0.08431739 0.03713367 -0.0480437 -0.004958135 -0.027118687 0.0475795 0.03921333 0.083528705
-0.06422587 0.0918288 -0.0139456615 0.07056929 0.07757716 -0.02352902 -0.066749476 0.01649594
-0.0024911652 0.08028131 -0.032047227 -0.0030556433 -0.0064246543 -0.09068522 -0.014711116 0.100507535
-0.039292127 -0.040965788 -0.00812553 -0.083119266 0.020020543 0.084180646 -0.03270939 -0.053946096
0.07289041 0.013475021 -0.060598772 -0.060813278 0.021997584 0.012287872 -0.024440115 0.040951155
0.088118926 -0.08574304 0.009069364 -0.012855866 0.096026756 0.033278257 -0.057138674 -0.008284537
0.11206639 0.05406324 0.01690533 0.12177538 0.027600123 0.02268272 0.008158481 0.031278063
-0.07078849 0.0006122815 0.043240894 -0.06603341 -0.0609671 -0.035045188 0.02963159 -0.06751341
0.057191454 -0.06543785 -0.051897977 -0.030787185 -0.019205725 -0.07465032 -0.075853445 0.0270122
-0.18019772 -0.09461817 -0.08328169 -0.10820279 -0.14013457 -0.12645471 -0.1564699 -0.13212498
-0.17486793 0.20482934 -0.088472754 -0.03018862 0.12378455 0.09147512 0.13553944 0.29796898
0.1399446 0.074999705 -0.018749103 0.05205351 0.026288215 -0.09404695 -0.06738605 0.1457144
-0.2003806 -0.10494609 -0.006399522 -0.0399812 -0.08945127 -0.012475874 -0.15039064 -0.07502614
-0.106806144 -0.07330819 0.062168594 0.06939359 -0.06571385 0.12590106 0.062497307 -0.011918354
-0.046152174 0.110327795 -0.23665167 -0.22999695 -0.009196841 0.09411301 -0.011397517 -0.1471468
0.05835769 -0.0045303577 -0.1233649 0.14204088 -0.018503 -0.016082915 -0.12603942 0.0051078545
0.0064463792 -0.120735556 -0.00129236 0.119106025 -0.08681449 0.14631829 0.11802372 0.11370703
0.09846169 0.042140335 0.13806283 0.11942088 0.10252098 0.056685485 -0.038665123 -0.14804904
0.018100504 -0.10769101 0.017000875 0.021983454 -0.15184589 -0.035522044 -0.1801368 -0.24576248
-0.2629822 0.022885785 -0.12124731 -0.07645191 -0.03996354 -0.007099652 -0.20913693 0.016109077
0.0034067829 -0.18457714 0.010989287 0.028226662 -0.016294563 0.004919407 0.095865235 0.099131785
-0.041655354 -0.018179674 0.032197177 0.016927266 0.25401312 0.1563733 0.03349522 0.1454845
0.017715827 -0.10183179 -0.069331475 0.12673622 -0.04282596 -0.04800629 0.052427243 -0.09519413

conv2.bias f4 [32]
00000000: 151a 783c e14b 313d 60a1 5b3d f9a6 81bd
00000010: 74cd 753d fe63 3fbd 82a6 153d ed25 7fbd
00000020: bbdb 9b3d 0de6 f33d 58fb 3abc 855a 493b
00000030: 3561 a2bd 67f6 4f3d 3df1 623d 1071 b33d
00000040: 4abd 643d 7630 cabb 8fd2 843c 95a1 233d
00000050: 9d78 cfbc e7ca babd f3d3 213e b706 443d
00000060: 335e 283e 4daf d73d 16b8 093d 0131 053c
00000070: 39f1 ba3d 2786 953d 756f adbc d421 da3d
0.015142937 0.043285254 0.053620696 -0.06330676 0.06001039 -0.04672622 0.036535747 -0.06229203
0.0761027 0.11909113 -0.011412464 0.003072412 -0.07928697 0.050772097 0.055405844 0.08761799
0.055844583 -0.006170328 0.016213683 0.03994902 -0.025326068 -0.09120732 0.15803508 0.047857966
0.16442184 0.10531483 0.033622824 0.008129359 0.09128041 0.07300978 -0.02117131 0.106509835

conv3.weight f4 [64, 32, 3, 3]
00000000: 5b39 1abb 80bb 053d 5c33 44bd e82c 93bc
00000010: 34bf 143a d150 03bc e136 033d 1d09 ed3c
00000020: 534f b93c bba3 563d 13da 9e3c cfe6 6c3d
00000030: 0803 6abd 4c93 513d bb43 d53c cdfd 843d
00000040: cc68 8bbc 7199 3d3d c09e cc3d 98e2 52bd
00000050: 8c96 edbd 5596 053d 285b 8c3d 0c77 f2bc
00000060: 117b 4aba 367d 8a3c f8cf 953d 11bd 8dbd
00000070: f279 14be 3264 febd 85e1 a53c 5b29 e7bb
00000080: 5360 f1bd 1c1c bf3c d76a 9d3d dd35 603d
00000090: 7f76 d33d d942 b6bb b464 c23d 3479 343d
000000a0: 45cd 4a3d 0e82 1c3d 2680 f33d 0ac7 c63d
000000b0: 24f7 be3d 6bd5 80bd d35c e6bc f33d 5e3d
000000c0: 40a5 ba3d 3a61 593c 40e2 afbc 45e3 013e
000000d0: 15f5 813d 82bd 363d 2c44 f83b 4625 45bd
000000e0: cca3 28bd ffe8 94ba 0af2 413d 05b6 973c
000000f0: d539 1e3c 69b9 13bc 3085 a43c 8f56 3bbd
00000100: 710b 6c3d 5af4 05bd 81d2 353d 63b6 1fbc
00000110: 4f31 a6bc 9454 453d af96 733d 263f acbb
00000120: 34d8 813d 59cc c3bc b804 8cbb 85f7 883d
00000130: afd5 943d b864 3a3d 5cdd adbc 3cb2 ffbb
00000140: da38 3bbc dc50 66bd a376 1c3b eed6 d63c
00000150: 33cd 51bd daf2 4d3c a928 1abd b145 a33c
00000160: b7d3 8d3d 8876 7c3d 3e19 8fbd af75 65bd
00000170: ebac 0fbd 4ebe 013c ae6d 6ebd fbe1 afbc
00000180: ac6e 8e3c a559 11bd 5695 05bd 1c8f 85bd
00000190: 94b0 dcbd 6adb adbd ae90 bd3c 818d 42bd
000001a0: be2a 55bd 7f12 243d b394 573c cd83 49bd
000001b0: 62dc 02be 3560 14be 255f fbbd 1a55 a937
000001c0: dd94 97bd 1f0a e2bd 1df6 573d abc6 c93b
000001d0: 9389 fabd 02af 09bd 0980 d8bd 359f 6dbd
000001e0: 65a2 e9bc 2fb4 84bd a059 95bd d19e 2ebc
000001f0: 644d 983c 6aae 23bd 819c 173c eae0 c1bc
00000200: 445b c2bc 318b 18bb 02a6 d5bc b909 2e3d
00000210: 9009 b6bc 7b0a 20bd f7bc 6bbc 4699 b2bd
00000220: 7b63 b8bc ff9a 01bd 4b3a 393d 3ea0 893c
00000230: 6d30 613d 8ee2 6b3d 2a9a 693a 2790 0138
00000240: 6632 bc3d 8c7f d1bc 93aa c43c 223a 2cbc
00000250: 3681 11bd f0c0 883b 4d2e ae3d 520d e43c
00000260: 1846 db3d dd57 0fbe 74de 23be e045 adbd
00000270: 96a9 ca3c a1ae 32bc fa2c 26bd adb1 5e3d
00000280: 3b5b 9bbd 03b0 47bd 30e1 243d d997 8dbd
00000290: 57c8 d1bc 9336 153d 5b3c d0bc 2acb 30bb
000002a0: b966 21bc 62c6 fe3c 4f48 dcbb e5f0 41bd
000002b0: aed8 d8bd d850 babd e399 32bd 3e23 ecbc
000002c0: f618 c2bd a13e 80bc 5a6a 6d3c 4186 893c
000002d0: 5475 9a3d 87bf 3c3b da9a 38bd d26a 2a3d
000002e0: 8023 213d a2c5 3e3d 4e54 a9bb 46f1 353c
000002f0: 2e29 a63c b0cc 51bd d509 623d 86c0 ccbc
00000300: ff45 ffbb 72ce 44bd 95c6 7ebd 7cc9 a03c
00000310: 0d7d 783d c89d 66bc e638 7b3c 0ad8 4dbd
00000320: 9df8 0bbd 1cbc 0bbc 1200 693d 3baf 273c
00000330: af00 5dbd c4b1 553b f6dd e53b 51d7 c1bc
00000340: e65d 08bd 0886 78bc 2870 003d 371d 18bd
00000350: 7b36 edbd 2806 b63c 5d5e 713d 0d07 16bd
00000360: ff7e 863d 1f6d 763d 519d 11bd b5f6 c0bb
00000370: 23f1 9d3d d952 ba3c cddf 52bd 3854 dd3b
00000380: 77d7 8d3c 040b b93d fd1e 42bd 54df c4bd
00000390: f47a 693d 04c9 7d3d b6bf c93c a168 93bb
000003a0: e674 18bd fb1b b53b a8e1 c9bd f54b 26be
000003b0: da59 a2bd 0d11 8fbd 0e9e 83bd 65b5 43bd
000003c0: 3654 093d 7099 80bc 53d4 e6b8 b802 93bd
000003d0: e997 07be e122 15be bb0e 72bd 6611 71bd
000003e0: 165b a9bd 2f8f 233d 3872 f93c 8710 6abd
000003f0: 1c1e 2cbd 7f93 c0bd 6f88 ecbd a2da 28ba
-0.0023532722 0.032649517 -0.047900543 -0.017965749 0.00056742434 -0.008014874 0.03203476 0.02893501
0.022620833 0.05240224 0.019391095 0.057837304 -0.057131797 0.051165864 0.026033273 0.06493721
-0.017017744 0.04628891 0.09991217 -0.051485628 -0.1160098 0.03261407 0.06853324 -0.029597782
-0.0007724027 0.016905408 0.073150575 -0.06920827 -0.14499643 -0.124214545 0.020249138 -0.0070544905
-0.117859505 0.023328833 0.07686394 0.054738868 0.10325336 -0.005562168 0.09491864 0.0440609
0.049512167 0.038209967 0.11889677 0.097059324 0.09324482 -0.06290706 -0.028120434 0.054258298
0.0911355 0.0132678095 -0.02147019 0.12684353 0.06345574 0.044614322 0.007576486 -0.04813125
-0.041171834 -0.0011360942 0.047349967 0.01851941 0.009657343 -0.009016373 0.02008304 -0.045736846
0.0576281 -0.032703735 0.044390205 -0.009748074 -0.020287184 0.048176363 0.059469875 -0.0052565513
0.063400656 -0.023901151 -0.0042730235 0.066878356 0.072673194 0.04550621 -0.021223716 -0.0078032296
-0.011427129 -0.056229457 0.0023874424 0.026225533 -0.051221084 0.012570107 -0.037636433 0.019930692
0.06925147 0.061636478 -0.069872364 -0.056020435 -0.035077017 0.007918907 -0.058210067 -0.02147006
0.017386757 -0.035485882 -0.03261312 -0.065214366 -0.10775867 -0.084891155 0.023140278 -0.04749823
-0.052042715 0.0400567 0.013158011 -0.04919796 -0.12779382 -0.14489825 -0.12274007 2.0185998e-05
-0.0740144 -0.11037087 0.052724946 0.0061577163 -0.122332714 -0.033614166 -0.10571296 -0.05801316
-0.028519819 -0.0647968 -0.07292485 -0.010657982 0.01859159 -0.039961256 0.009253622 -0.023666818
-0.02372516 -0.0023276324 -0.026080135 0.04248974 -0.022221357 -0.039072495 -0.014388314 -0.08720641
-0.022508373 -0.031641956 0.045221608 0.016800042 0.054977823 0.057589106 0.0008911217 3.089025e-05
0.091893 -0.025573514 0.024007117 -0.010511907 -0.035523616 0.0041733906 0.08504925 0.027838383
0.10706729 -0.13998361 -0.16002828 -0.08460593 0.024739068 -0.010905893 -0.040570237 0.054368664
-0.0758576 -0.048751842 0.040253818 -0.06913728 -0.025608225 0.036429 -0.025419405 -0.0026976564
-0.009851151 0.031100456 -0.006722487 -0.047348876 -0.10588203 -0.09097451 -0.04360379 -0.028825399
-0.09477417 -0.015654864 0.014490688 0.01678765 0.0754191 0.0028800683 -0.045069553 0.041605778
0.039340496 0.046575196 -0.0051675206 0.011104887 0.020283308 -0.051220596 0.055185158 -0.024994146
-0.0077903266 -0.048048444 -0.0622011 0.019627325 0.060666133 -0.014075704 0.01533339 -0.05025486
-0.034172643 -0.0085287355 0.056884833 0.010234649 -0.05395573 0.0032607177 0.007014985 -0.023662241
-0.033292674 -0.015168674 0.03135696 -0.037137236 -0.11582657 0.022219732 0.058927882 -0.036627818
0.06567191 0.06016266 -0.03555042 -0.005888785 0.07712009 0.022744583 -0.051482964 0.0067544244
0.017314656 0.09035304 -0.047392834 -0.09612909 0.057002023 0.06195928 0.024627548 -0.0044985567
-0.037220858 0.005527017 -0.09857494 -0.16239913 -0.07927294 -0.06985674 -0.06426631 -0.047780413
0.033527575 -0.015698165 -0.00011006803 -0.07178253 -0.13241543 -0.14564086 -0.05909608 -0.058854483
-0.082693264 0.039931472 0.030449972 -0.057144668 -0.042020902 -0.09403133 -0.1154946 -0.000644127

conv3.bias f4 [64]
00000000: cf2f e73c 0e11 a4bd c3b0 323c 5955 283d
00000010: dd5a d93d a856 3cbe 2b08 cebc d122 a63d
00000020: a330 433d 3810 ca3c c863 643d 4ec1 33be
00000030: 4ac8 593c fcb2 90bb f0a3 753d 9f75 e03d
00000040: b24f 3a3e d9cf e8bd 3073 33bd 07f8 723d
00000050: 3134 563c d7d2 b53d 2c7e fcbc aeea b53c
00000060: e974 1cbc 1256 bc3d ceb5 643e 6c3e 00be
00000070: b5bf 503d 6f94 f33b 3181 15bd 61ae 69bd
00000080: ad28 38bc a574 dc3c 9546 513c e5f8 303d
00000090: ee9b d83c 81c4 a63d bc7c 863d fef6 19bc
000000a0: ddeb c73c 534f 4c3d 8d21 87bd 776b 19be
000000b0: 5beb 32bc 8838 94bd 184c 0d3d 63c8 c1bd
000000c0: 821f e6bd 6210 083e 7aee 27bd 6720 653d
000000d0: 4f50 743c 7b81 6e3d f0fc c2bd 3117 003d
000000e0: 9713 ce3d c5e5 a93b 96a6 0abd ed25 3639
000000f0: ae57 1c3e 5cd1 b4bd 2e6d 3d3e 24bc 47be
0.02822104 -0.080110654 0.010906401 0.04109702 0.10613034 -0.18392432 -0.02515038 0.081121095
0.047653805 0.024665937 0.05575922 -0.17554209 0.013292382 -0.004415868 0.059970796 0.109599344
0.18194464 -0.11367769 -0.043811023 0.05931857 0.013073967 0.08878105 -0.030821882 0.02220663
-0.009549358 0.09196104 0.22334978 -0.12523812 0.050964076 0.007433466 -0.03650016 -0.057051066
-0.011240167 0.02691109 0.012773176 0.043206114 0.02644154 0.08142949 0.0656676 -0.009397266
0.02440446 0.049880337 -0.06598196 -0.14982401 -0.010920371 -0.07237345 0.034496397 -0.09462049
-0.112364784 0.132875 -0.040998913 0.055939104 0.014911725 0.05822895 -0.095209 0.031272117
0.1006233 0.0051848614 -0.033850275 0.00017371001 0.15267822 -0.08828995 0.1849868 -0.19505364

fc1.weight f4 [128, 576]
00000000: ca02 533d 0f75 c4bc 9976 d63c c411 2fbc
00000010: 4e78 55bc 4e81 b3bb 6e90 d4bb c900 99bc
00000020: b6ee 17bd 7449 13bd 3aac e3bc 4e73 a6bd
00000030: 9630 2dbd 80f9 66bc f743 c3bc 0fc3 fd3c
00000040: 07ba ac3c c719 103c 476d 6d3c b3dd d7bb
00000050: a70f 493d c2a3 97ba 7940 4f3d 6b9c 683d
00000060: b101 753c 52af 863c 41a1 f73c aefe 383d
00000070: 1a3d 163d 858b 61bc 80d5 90bb 209e 4fbc
00000080: d447 b33c 82ab a63c c73d b9bc f5a1 64bd
00000090: 33bd 0e3d 7612 d33c 8f79 573d 2a4c bdbc
000000a0: ec8d 08bb b62f 55bc ff7d db3a f449 4fbc
000000b0: 4b82 193c 3ab8 8a3c 5d67 fabb c35b 92bd
000000c0: 382c de3c a15d 47bc c7fc 9dbc 4844 8dbd
000000d0: e021 dfbd db67 00be 989e e3bc b39d 80bd
000000e0: 071a 6ebd 59f5 30bd cd7b 59bc 0350 30bd
000000f0: 3240 0d3c 8c98 003d 682a ac3d 2996 5abb
00000100: 3ec2 013d 28cb 9e3c e8dc c0bc a7ca 19bd
00000110: ff12 273c 404a 05bc 0492 e43c caa5 c13b
00000120: 46b8 143c 8675 ae3c 76a2 b63c 1007 b6bc
00000130: e395 2f3c 0a8c 5abd a142 61bd c6e6 de3c
00000140: b924 16bb 065a c73c dcba a53c f34e ab3c
00000150: 4d10 99bd 0156 873c 6850 e03c de63 c2bd
00000160: f247 a33a 30cc 2ebd 50f5 d83c a376 4bbd
00000170: f0e2 d3bb cd50 92bc 4237 2ebc 4867 e0bc
00000180: de27 99bc 347e d93c 269e b0bd 7ec4 94bd
00000190: 545a 10bd cfbf 40bd dfac 13bd d907 a03b
000001a0: 6a48 863d f67b 2cbe 860f 05be 2097 dabd
000001b0: 80e7 4d3d 3d9a 0cbc dffc f3b9 cda0 0abd
000001c0: 2d1a 35bc dcba 193d 16bd cdbd 8187 90bd
000001d0: 4ff5 cdbd c3b4 c73b a8bc 90bb d453 343b
000001e0: 223a 213d 10c8 493d 38b5 1d3d 9c28 753b
000001f0: 601c b13c 6e09 e9bc b65a 683d 3de2 353d
00000200: bd51 763c 1b61 92bc 6ff5 47bc 1a35 493d
00000210: 507f 783b 7a8a ad3b 76c2 cc3c a255 2b3d
00000220: 880e 903b 0e79 7dbc 985b f03c 2fda 533d
00000230: 0c4d a03c 1c17 1c3d d141 803d 9ae3 3a3d
00000240: 1f9a 86ba e7ff a33b 935d 033d 0980 25bd
00000250: 2184 1b3b fcb7 d2bb 952f 9a3d 80f2 983d
00000260: 1e81 103d 0ffa 78bb 5af4 08bd aae0 6dbd
00000270: a2bc 233c ccdd 7abb 3ed9 13bd ac27 fd3d
00000280: 8682 153d 7f5e 9b3c 2b3b 033d 29bb 4e3d
00000290: ddc6 d23c def1 373c 4bfe 713c e68b 123c
000002a0: 71b1 243c 784c 9b3d 60bb 8f3d f3fd 0f3d
000002b0: 0361 923c 8304 d339 4b4e 833b 1377 21bd
000002c0: 08de ae3b c090 58bc f53d 023d ad88 1d3c
000002d0: b083 2a3c dbb8 d1bb 519b 00bd 72ba 723c
000002e0: 2192 833c 6260 37bd dadd 883c dbdb b2bc
000002f0: a239 1dbc f723 953b 9842 fa3a d4d6 113d
00000300: a4aa 2b3d 5b47 293d a05e 953c 8476 3c3d
00000310: 005a c13b 0458 8a3c 04ac 3c3c 2485 b8bc
00000320: c675 82bc fd67 4ebc d37b a13c a4f2 a7bc
00000330: 7263 c5bc 699a b4ba dfe1 153d 278c b3bc
00000340: 1250 4d3c 651f bc3c 111f 193c 4342 133d
00000350: 3873 f9bc 744c 95bc e7f2 1f3c ab7a 0e3d
00000360: a501 293d 2040 973c 96a3 c53b 9a5e e33c
00000370: 9252 c4bc 04ed 17bd 9b13 303d 9555 973d
00000380: bf77 723d f04b 403c 3d49 a73c a22b ccbb
00000390: 8fd2 4a39 0d56 9c3c 50db 133d e8cf 2cbd
000003a0: f429 45bc b7ee 05bd dfe7 d8b9 8c57 9e3c
000003b0: d517 4e3d 3a41 333d a8d9 ec3b 0c7e 183c
000003c0: e2a2 34bd 96bf edbc 0a51 91bc e73e 3a3c
000003d0: d2ca 883c dbec 97bc b69e c13c 1711 b63c
000003e0: 4fde c93c cf98 33bd d4be cd3d 71a9 c73d
000003f0: e2b1 123c 4837 793c 7070 31bc 77ae 1ebc
0.05151633 -0.0239816 0.026179599 -0.010685388 -0.013029171 -0.005478061 -0.006486944 -0.018677132
-0.037092887 -0.035958722 -0.027792085 -0.081274614 -0.042282663 -0.014097571 -0.02383612 0.0309768
0.021084798 0.008795208 0.014491386 -0.006587708 0.049087193 -0.0011569189 0.050598595 0.056789797
0.014954017 0.016441021 0.030228259 0.045164756 0.036679365 -0.013766174 -0.0044199824 -0.012671977
0.021884836 0.020345453 -0.022612466 -0.055818517 0.034848403 0.025765639 0.05260616 -0.023107607
-0.0020836545 -0.013011863 0.0016745924 -0.012651909 0.009369443 0.01693355 -0.0076417164 -0.071464084
0.027120695 -0.012168319 -0.019285573 -0.06897789 -0.10895133 -0.12539618 -0.027785584 -0.06280079
-0.05813029 -0.04320273 -0.013274145 -0.043045055 0.008621262 0.03139548 0.08406526 -0.0033353663
0.031679384 0.019383982 -0.023542836 -0.03754678 0.0101974 -0.008135378 0.027901657 0.005909656
0.009077137 0.021296274 0.022294264 -0.022220165 0.010716888 -0.053356208 -0.054995183 0.02720965
-0.0022910072 0.024334919 0.020230703 0.02091167 -0.07473812 0.016520502 0.02738209 -0.094917044
0.0012457354 -0.042675197 0.026484162 -0.049673688 -0.006466262 -0.017860794 -0.010633292 -0.027392998
-0.018695768 0.026549436 -0.086239144 -0.072640404 -0.035242394 -0.047057923 -0.036053535 0.004883748
0.06556781 -0.16844162 -0.12994203 -0.10673356 0.050269604 -0.008581695 -0.00046536975 -0.033844758
-0.011053604 0.03753172 -0.10045831 -0.07057095 -0.100565545 0.0060945465 -0.004417021 0.0027515786
0.03936208 0.04926306 0.0385029 0.0037408238 0.021619976 -0.02844688 0.056727134 0.04440521
0.015034136 -0.01786857 -0.012204512 0.049122907 0.003791768 0.0052960487 0.02499507 0.041829713
0.0043962635 -0.015470756 0.02934055 0.051721748 0.019567989 0.038107976 0.062625535 0.045627214
-0.001026932 0.005004871 0.03207166 -0.040405307 0.0023729878 -0.006430624 0.07528607 0.07468128
0.035279386 -0.0037990843 -0.033436157 -0.058075584 0.009993704 -0.0038279174 -0.03609585 0.123610824
0.03650143 0.018965958 0.03203885 0.05047146 0.025729591 0.011227099 0.014770101 0.008944487
0.010052071 0.07582945 0.07018161 0.035154294 0.017868524 0.00040248418 0.004007136 -0.0394202
0.005336527 -0.013218105 0.031797368 0.009615106 0.010407373 -0.0064002103 -0.03139812 0.01481496
0.01606089 -0.044769652 0.01670735 -0.02183335 -0.00959626 0.0045514065 0.0019093333 0.035605267
0.041910782 0.041327816 0.018233597 0.046011463 0.0059006214 0.016887672 0.011515621 -0.022524424
-0.0159253 -0.012598035 0.019712364 -0.020501442 -0.02409527 -0.0013778928 0.03659236 -0.021917416
0.012531297 0.022964189 0.009345786 0.035951864 -0.030450448 -0.018224932 0.009762502 0.034784954
0.041261334 0.018463194 0.006031464 0.02775507 -0.023965154 -0.03709127 0.042987447 0.0738937
0.05919623 0.011736855 0.020420665 -0.0062307874 0.0001934266 0.019084001 0.036097825 -0.042190462
-0.012033928 -0.03269836 -0.00041371488 0.019328855 0.050315697 0.043763377 0.007228095 0.009307396
-0.04410065 -0.02902202 -0.017738838 0.011367536 0.016698275 -0.018545559 0.02363525 0.022224946
0.024642138 -0.0438469 0.10046163 0.09749115 0.008953543 0.015210934 -0.01083003 -0.00968515

fc1.bias f4 [128]
00000000: f862 6d3d b2ca 243d 6934 e63b 3dcd dfbc
00000010: bb19 363d 155d 003d a4dd 09bd 6b9b 25ba
00000020: 38e9 f53c 3a8d b23d 4d90 943d 7b37 ce3c
00000030: 46e6 b63c edbd 803d 9311 f5bc 91a5 9bbb
00000040: a2fc 233d 1f50 893c 1889 e3bc ea3f a43c
00000050: 63b9 63bd 9010 d73d 89e5 e63b 3a91 c83c
00000060: 0625 c83c f403 033a 5fe0 453d 145e 8f3d
00000070: d462 cc3a f785 b7bb 2076 503d 098c 10bc
00000080: 065c 5cbd 83d1 0d3a e508 163d 1f7a 1d3d
00000090: 9724 d13b 1250 c03b ae3d 5fbc 993e 12bd
000000a0: 4fb6 6fbb 2f37 f9bc 8e58 353b e782 dc3c
000000b0: f738 553d 2bd8 34bb 16b3 6abd 1c95 2c3b
000000c0: 7157 f93b 2c17 093d 1bc8 10bd 1f27 903d
000000d0: 63c2 2b3d 1b3d 323d 567c 0a3e 973b 8dbc
000000e0: 0ced 72bc 43cc 503c 5068 ac3d fb83 4e3b
000000f0: a0d7 f13c fcfa 913c b61c cfbc 227a 08bd
00000100: 3f4f 233d a3e9 22bd d2d5 773d ad92 babc
00000110: 2aff 1dbd f2d2 bfbc 58da aa3d ac24 063d
00000120: 15be cbbb 609c 233d af3c be3c c8f5 943d
00000130: 115c cc3b 5f57 cebc 4c2a a73d 87a9 723c
00000140: 022e b1bc 1d83 843c 5a26 013a 51b1 b43d
00000150: ba6d 483d 51b4 973c 2ecb 84bc ef6b a93d
00000160: 62c5 833d c12c 41bc f5ad 67bc ed8b 44bd
00000170: 2797 103d 050e 8dbc e9e8 a7bc 833e 683d
00000180: da5f 8d3c 5455 0ebd 3028 d13c c0e9 07bc
00000190: 855a 563d 6bd8 023d e10b 8e3c 02cf 733a
000001a0: e2c5 34bc a5d6 ec3c fe5c a43c 3a29 76bc
000001b0: e612 f03c fb4c e53b 1900 d7bc 7b71 2abb
000001c0: 15f3 123d ead3 d33b ada6 a13d 18fb 87bc
000001d0: a1fa 0c3d 385b 38bc ad6c d03c c1e0 5a3d
000001e0: 39a2 b93c 8ac5 ab3d d36a 55bc 47d0 113d
000001f0: d4fd de3b c22d 86bc aa88 3d3c 692a db3c
0.057955712 0.040232368 0.0070252907 -0.027319545 0.044458132 0.03133877 -0.03365864 -0.00063174096
0.030018434 0.08718343 0.07254086 0.02517294 0.0223266 0.062862255 -0.029915607 -0.0047499617
0.04003585 0.016761838 -0.027775332 0.020050008 -0.05559672 0.10501206 0.0070464057 0.024483312
0.024431717 0.00049978425 0.04830968 0.07000366 0.0015593418 -0.0056006867 0.050893903 -0.0088224495
-0.053798698 0.0005409943 0.036629576 0.038446542 0.0063825357 0.00586892 -0.013625545 -0.03570423
-0.003657717 -0.030421821 0.002767119 0.026917888 0.05205628 -0.0027594666 -0.057299696 0.0026333993
0.007609301 0.033469364 -0.035347085 0.07038712 0.04193343 0.043515306 0.13523993 -0.017240329
-0.014827024 0.012744012 0.084183335 0.0031511772 0.029521763 0.017819874 -0.025282245 -0.0333196
0.039870497 -0.039773595 0.06050665 -0.022775019 -0.03857342 -0.023416016 0.08342427 0.032749817
-0.006217728 0.039944053 0.023222296 0.072734416 0.006236561 -0.025188146 0.08162364 0.014810926
-0.021628384 0.016175801 0.00049266743 0.08822883 0.04893277 0.018518599 -0.016210165 0.0827254
0.06434132 -0.011790455 -0.014140596 -0.047985006 0.0353004 -0.0172186 -0.020496802 0.05670024
0.01725762 -0.034749344 0.025531858 -0.008295476 0.05233242 0.031944674 0.017339649 0.0009300561
-0.011033507 0.028910944 0.020063873 -0.015024478 0.029305886 0.006997702 -0.026245164 -0.002600758
0.035876352 0.006464471 0.07893119 -0.016599223 0.034418706 -0.011252217 0.025442446 0.053437
0.022660362 0.08387287 -0.013025957 0.03559902 0.006805161 -0.01637924 0.011568228 0.026753621

fc2.weight f4 [10, 128]
00000000: d406 07be c32d af3e 68c9 c6bd b558 393e
00000010: 4a16 c93d 287d d4be 5424 683d 8750 87be
00000020: c842 18be c61d c03d 45aa 5bbe 1a65 6e3b
00000030: df59 60bd dcb4 d4bd 9178 323d 6f79 4e3d
00000040: 15b3 a1be 8bb5 a2bd c61b c53c 5da3 4d3c
00000050: 6606 9bbd ed6c e33b 9da1 063e 3dd9 853e
00000060: 1d1d 27bc 552d 2d3d a61e 1d3e 415b b7bd
00000070: a351 09be e37f 4bbe e729 243d bedc 833d
00000080: b31c 253c 7e87 8a3d 35e9 de3c 457c 773d
00000090: 09c3 f2bc 453f 993d b11f 4f3e b21f 363c
000000a0: c93f 1b3e 5e34 c63d 2cf1 4ebd 76ec 243e
000000b0: 61c7 bfbd 2929 b13e 9990 043e 1a8e b43d
000000c0: e53c bc3d a509 213e a72b d03c 386c a2be
000000d0: 2c12 cd3d c686 6f3d c2d5 92be 1810 463d
000000e0: 57f5 0b3e 5d0c 8dbe 5e78 153e 43cd 9a3e
000000f0: 18fd 5bbe a676 cfbc 0de0 1b3e 8d24 083f
00000100: 3263 553e 96ad d8bd d8cb 013e 42ea a1bd
00000110: 36a6 a13e 8267 a93e db2c b5bd 86c1 0f3e
00000120: 20a1 40bd 4908 9b3b a1af 23be 785c 6bbe
00000130: 885c 80bd d509 ac3d 52fa c9be 9185 e33d
00000140: 64de f9bc 451a 62bc 4a3d 243e 591b 3fbe
00000150: 25e4 61be e0cf 58bb 11fb 59be 75c3 42be
00000160: cc15 2d3e 8992 f53c ce62 323e 64c4 cbbc
00000170: 09f0 5dbd 78fe 44be c4ea 42bd aeeb e3be
00000180: fd3c 823e f4ab 2e3f 3a04 653d be4a 76be
00000190: 5700 bebc 609f 38be b177 a9bd b6a0 d5bd
000001a0: ab24 943c 8a89 383d ffc8 a4be a1e0 5fbc
000001b0: a638 2ebe 75be 983c 9535 4d3d f709 813d
000001c0: 7893 be3c 168e 813d f742 73be f8d3 343d
000001d0: ce8c 3dbe c70f 5dbe 234f 6b3c 73c1 06be
000001e0: f20c 943d c48c 67be 3c40 a3bd 880d 003e
000001f0: e12e 6c3e fe1f 623e 6f0d e4bd 0f49 6fbd
00000200: 7d92 b03d ae33 95bd acd3 263e f926 4f3c
00000210: 40b1 f2bd 5705 013e 1e6f bcbd 5284 23be
00000220: 54be 803e 50a8 f23d 44c4 2b3d 8977 303d
00000230: 9476 67be c901 35bc ef06 79be 4bf9 19bd
00000240: 60dc 3f3e 4022 99bd f616 82be eb3a a3bd
00000250: 27ee 743d 0e18 d93e 8810 2dbc d0d1 b03d
00000260: 6e87 2c3d 9823 aa3c 0f63 25be d34b 543e
00000270: 165a 093b bce7 ed3c f6a9 8f3e f7ad 34be
00000280: 38f9 64be 5bde b5be 748b 57bc b6bf 2fbd
00000290: 1b66 563d 8baa 9cbd 78c8 e53d fbb7 e63c
000002a0: 0f40 3ebc c2d6 db3d c6f4 f2bd 1cc1 e53d
000002b0: f37f 3b3d 00f0 d43c 248b 5cbe a0bb 3dbe
000002c0: a50f cbbd a804 babd d82c 813d 3705 303e
000002d0: 87e2 983d 8238 73be ab7d 143f 56a8 093e
000002e0: 1a09 36ba 7a7d 87bd e92c 7fbd fe36 723d
000002f0: cdfc 61be 9b35 84be ab88 b0be 3d75 463e
00000300: f4c2 2f3e e581 ddbe 5979 92be 2389 b4bd
00000310: 22ec cabe e221 6fbe 4504 dd3d bd6d 753d
00000320: cb71 35be 8f38 893d e5cb 153e 0edd 8fbd
00000330: 6ff5 893e 329f adbd 5f4b 703e b9bc 12be
00000340: 0a21 18be 211c 913e cecf b0bd c682 e33e
00000350: da66 8b3d 91be 5fbe 23f2 b3bd 1200 7c3e
00000360: ae54 873e 0a55 00be 1531 913d 4a71 f2bd
00000370: 9e55 573d 8cd7 9c3d ec5a b0bd 2e57 af3d
00000380: 3e18 5f3d 282c f03d 988c 87bd ee80 fdbd
00000390: 93d4 68be 40ea 78be 0319 6e3d 80b5 583e
000003a0: f5ad 46be ebed 773d faa7 f83d 2795 1cbd
000003b0: a124 eb3d c128 b03d 166a a2bc eb8a 10be
000003c0: ef46 c9be c075 223e 2029 2f3e 104d ed3d
000003d0: 64c9 97bd 2f9b f7bd f438 87bc 4e76 823d
000003e0: d229 bc3c 40ae 743e 1b38 72bd 63c5 a6bd
000003f0: 45b5 07bd 2c29 273d e8d0 31be dbed 6bbe
-0.13186198 0.342146 -0.09706384 0.18100245 0.098187044 -0.41501737 0.05667527 -0.26428625
-0.14869225 0.09380679 -0.21451671 0.003637618 -0.054773208 -0.10386059 0.043572012 0.050408777
-0.3158194 -0.07944783 0.024061095 0.012551156 -0.0756958 0.006940475 0.13147588 0.26142302
-0.010199812 0.04227956 0.15343723 -0.08952952 -0.13410048 -0.19873004 0.040079024 0.064385876
0.010077643 0.06764124 0.027210811 0.060421247 -0.029634016 0.07482771 0.20226933 0.011115955
0.15161051 0.09677957 -0.05052297 0.16105828 -0.093642004 0.34601715 0.12945785 0.08816166
0.09191302 0.15726335 0.02541144 -0.3172319 0.10013232 0.05847814 -0.2867871 0.048355192
0.13667808 -0.27548495 0.14596698 0.30234727 -0.21483266 -0.02532513 0.15222187 0.5318077
0.20838621 -0.10579984 0.12675416 -0.07906009 0.3157212 0.33086783 -0.08846446 0.14038667
-0.04702866 0.0047312123 -0.15984966 -0.22984493 -0.06267649 0.08400313 -0.39448792 0.1110946
-0.030501552 -0.013800208 0.16039005 -0.18662776 -0.22059686 -0.0033082888 -0.2128718 -0.19019873
0.16902846 0.0299771 0.17420503 -0.02487392 -0.054183993 -0.19237697 -0.04758717 -0.44515747
0.25437155 0.6823113 0.055912234 -0.2405195 -0.023193521 -0.18029547 -0.082747824 -0.10431044
0.01808389 0.045053042 -0.32184598 -0.013664396 -0.17013797 0.018645504 0.050099928 0.06300729
0.023263678 0.06325929 -0.23756014 0.04414746 -0.18510744 -0.2158805 0.014362129 -0.13159733
0.072290316 -0.22612292 -0.07971236 0.12505162 0.23064758 0.22082517 -0.11135375 -0.058419283
0.086216904 -0.07285248 0.16291684 0.012643569 -0.11850214 0.12599693 -0.092008814 -0.15968445
0.2514521 0.11848509 0.04193522 0.043082748 -0.22603828 -0.011047789 -0.24319051 -0.03759126
0.1873641 -0.07477236 -0.25408143 -0.07970222 0.059797432 0.42401165 -0.010563023 0.086337686
0.042121343 0.020768926 -0.16151069 0.2073205 0.0020958236 0.029041164 0.28059357 -0.17644487
-0.22360694 -0.35521206 -0.013155807 -0.04290744 0.05234347 -0.07649716 0.11219877 0.0281639
-0.011611952 0.10734321 -0.11863093 0.11218473 0.04577632 0.025993347 -0.21537453 -0.18528605
-0.09915093 -0.09082919 0.063073814 0.1718949 0.07465082 -0.23752025 0.58004254 0.13443121
-0.0006944105 -0.0661573 -0.06229869 0.059134476 -0.22069092 -0.25822148 -0.3447927 0.1938066
0.17164212 -0.43263164 -0.28608206 -0.08815219 -0.3963328 -0.23352769 0.1079183 0.059919108
-0.1771919 0.06700241 0.14628561 -0.07024585 0.26945063 -0.0847763 0.23466252 -0.14329804
-0.14856353 0.28341773 -0.086333856 0.4443571 0.06806727 -0.21850039 -0.08786418 0.24609402
0.26431793 -0.1253244 0.0708944 -0.118380144 0.052571885 0.076583 -0.08611092 0.0856155
0.05446648 0.11727172 -0.06618613 -0.12378107 -0.2273734 -0.2430811 0.05812932 0.21162987
-0.19402297 0.06052963 0.12141414 -0.03822818 0.11481596 0.08601523 -0.019825976 -0.14115493
-0.3931193 0.1586523 0.17105532 0.11586964 -0.07411459 -0.12090146 -0.01650665 0.06370221
0.02296916 0.23894596 -0.059135538 -0.08143117 -0.033131856 0.04081075 -0.17364848 -0.23039953

fc2.bias f4 [10]
00000000: 87ab 2abe 66de c03e 27cf 2abe 18fa ca3d
00000010: 9798 293d 36fe 8e3d 4933 4fbe e4f4 1c3d
00000020: 706e 1abd 6eaf 7ebd
-0.16666995 0.37669677 -0.16680585 0.09910983 0.041405287 0.06982081 -0.20234407 0.038319483
-0.037702978 -0.06217902

momentum_buffer f4 [16, 1, 3, 3]
00000000: 7887 ddbc 0624 8bbc bbc5 bc3c 3223 9d3c
00000010: b21d 6f3c adc2 213d 6e39 e73b 5430 e83c
00000020: 8283 8f3c 04c6 cdbc 3f85 a5bd c367 93bd
00000030: 525e 06bd ff1f 0dbd 2828 b9bc 24fb 963d
00000040: bc4f 2f3d 6952 223d 4c6b bc3b 0417 f03c
00000050: 8000 eb3b 045a 5a3d f230 ae3c 8ac9 95bc
00000060: d035 be3c 3ee8 20bd 088a d3bd 80a1 dd39
00000070: 0c6c d93b e41a e0bc 2c7c ee3c 58a2 0d3c
00000080: 1683 253d dc06 683c 6043 093b 2c57 533d
00000090: f39e cebd 4dd2 eebd e0bd 413c 2c04 88bc
000000a0: a167 67bd b0b3 68bc d8ac 26bc b442 27bd
000000b0: c0ee 68bd e182 833d 5bfe 923c d4ac c4bb
000000c0: 6b5a ca3c 6260 4ebc a1d1 2ebd 40c6 57bb
000000d0: da1d 75bd d002 07bd afe1 f4bb 9510 a6bc
000000e0: 86b9 d5bc 3a1d 5d3c b4a4 f2bb a652 26bd
000000f0: 9141 89bc a9f1 54bc 3033 acba 0a32 f13c
00000100: eeb6 153d fcb2 593d 00d1 7237 96a4 1bbc
00000110: 8e75 563d 7ff4 33bd 02e5 b5bc e790 323d
00000120: 39b5 fdbc 147a e5bc 0b62 4d3d 06b1 e9bb
00000130: fe07 863d d4bc 973c 684f eb3b f5d3 563d
00000140: 11d2 473d 02b5 89bb 6117 ecbc b87c 4cbd
00000150: 6cb9 32bd cc9b 25bd 40bc 51bd 3a5b aabc
00000160: e80d aa3a d097 91bb 224b 7b3c 1a04 3fbb
00000170: 6a40 7dbc 202d 033c 004c ebb7 ee6f 9b3c
00000180: 55ce 673b 5cd3 863c 94ce dd3c 1c95 74bd
00000190: 7616 ca3c 6804 c83d bec9 f43b 5ab2 303c
000001a0: d4a0 b23b c003 8aba 7ef0 d43b d629 a43b
000001b0: c80d d23b 4ca7 00bd c826 c8bc d4f8 513d
000001c0: 34c4 a43c c067 26b9 c848 62bc d8b4 24bc
000001d0: bedb 2f3c 945d a83b 74b2 acbd 494d cabd
000001e0: 1c33 c0bd fc8f f5bd b165 fcbd 18fe 60bd
000001f0: acc8 97bd 4425 bbbc 4e9d 723c a5e2 883d
00000200: 3014 d83d ac02 c93c 6686 bc3d 3cf7 473d
00000210: d828 e53d a2e0 803d eda1 7dbc d197 0fbd
00000220: 00e9 7a3a 4d3b 513d 60f8 82bc ae8b d23c
00000230: c104 693d cfc4 25bd c374 ef3c f62d fc3c
-0.027042136 -0.01698495 0.023043504 0.019181821 0.014594482 0.039492298 0.0070564067 0.028343357
0.017518762 -0.025118835 -0.08082055 -0.07197525 -0.032804795 -0.034454342 -0.022602156 0.0737212
0.04280065 0.039629374 0.0057500955 0.02930785 0.0071716905 0.0533085 0.021263573 -0.018284578
0.02321902 -0.039283983 -0.10329062 0.00042272732 0.0066351946 -0.027356572 0.029111944 0.008644663
0.040408216 0.014161792 0.00209447 0.051596805 -0.10088911 -0.116612054 0.011825055 -0.016603552
-0.056495313 -0.014202997 -0.010173045 -0.040835097 -0.056868315 0.064214475 0.017943552 -0.006002048
0.024701318 -0.012596222 -0.042680386 -0.0032924563 -0.05984292 -0.032961667 -0.0074731926 -0.020271579
-0.026089441 0.013495738 -0.007404888 -0.040606163 -0.016754897 -0.012997069 -0.0013137814 0.029442806
0.03655141 0.05314921 1.4472986e-05 -0.00949969 0.052358203 -0.04393434 -0.022203926 0.04359522
-0.030970203 -0.028012313 0.05014233 -0.0071316985 0.06544493 0.018522657 0.007181097 0.05244823
0.04878432 -0.004202486 -0.028819742 -0.04992363 -0.043633863 -0.040431783 -0.05120492 -0.020795453
0.0012974115 -0.0044431463 0.015337737 -0.0029146732 -0.015457252 0.008006364 -2.8049573e-05 0.01897427
0.0035370786 0.016458206 0.027076043 -0.059712514 0.024668913 0.097664654 0.0074703386 0.01078471
0.005451301 -0.0010529682 0.0064983955 0.00500987 0.0064103343 -0.031409547 -0.024432555 0.05126269
0.020113088 -0.00015869644 -0.013811298 -0.010052882 0.010733543 0.0051381085 -0.08432475 -0.09878022
-0.09384748 -0.119903535 -0.123240836 -0.054929823 -0.07411322 -0.022844918 0.014808012 0.06683854
0.105507255 0.024537407 0.09205322 0.048819765 0.11189431 0.06292845 -0.015480501 -0.035056893
0.0009571463 0.051081944 -0.015987575 0.02570137 0.0568893 -0.040470894 0.029230481 0.030783635

momentum_buffer f4 [16]
00000000: f736 9cbc 0de0 043b 1efd 8dbd 96a0 dc3c
00000010: 98dc 313c c419 e2bb fa45 413c c836 973a
00000020: be67 fabc f4b0 16bd 87d3 d93a 8cd3 e33c
00000030: b033 853b 6a9c 05be 28a3 f83d 4c75 84bd
-0.019069178 0.0020275146 -0.06933044 0.026932042 0.010855816 -0.006900044 0.011796469 0.0011536712
-0.030567046 -0.03678985 0.0016618826 0.027810834 0.0040649995 -0.13047948 0.121404946 -0.06467685

momentum_buffer f4 [32, 16, 3, 3]
00000000: 7cbd 833b c293 a7bb e00a 41ba 6d30 093c
00000010: 8831 a83b 348c 833a 6cd4 b1bb d07e 79ba
00000020: ca7f 9abb 5c6d 56bd fb46 20bd 32c4 d4bc
00000030: 68f4 69bc 8a33 94bc c291 77bc 9200 533c
00000040: d459 b8bb 9509 febc ee96 313b 10de 9fbb
00000050: 4234 78bc 4b54 543c ceed 6c3b eed1 b13b
00000060: 5e2f f53a 8724 0c3c b7a9 053c dbf0 163c
00000070: 0517 c4bc 510d 77bc f6b1 5cbc 1655 283b
00000080: fbaf 263c 4f52 d2bc 2829 48bc 98bd 74ba
00000090: 40e5 8b39 8a24 96bc 80e4 edbc 3d29 953c
000000a0: 454f b9bc b65a b4bb ef98 0f3c fc1f 84bc
000000b0: 1429 e03b c4ae b3b9 7ac9 a8bc 54d3 1ebb
000000c0: 8e2d 25bb 4ad7 3fbc 2720 c63b 966c 5bbc
000000d0: 8c2d afbc a6d3 3c3b 60fa 98bc 54dc 9abc
000000e0: 208c b7bc dc7f a13b 22a3 b839 e0a4 573b
000000f0: b1ba 2a3c dbea fd3b 103b 03bb b8b6 17bd
00000100: 422b 30bc a85b edbb af0e 4dbc 4fc1 7ebc
00000110: ee22 b8bc 5ead 153c 6d2f 97bc 2bfa 06bd
00000120: 3c20 bf3b 04a9 02bb c0e4 28ba 8077 2eb9
00000130: c2dc 523c d658 ec3b 5f82 a6bb 1f4f 063c
00000140: 0053 bd38 3e3e 683b ffb9 86bb 185d bcba
00000150: cbd5 23bb 133b 89bc d451 ecbb 9810 e9bc
00000160: 85b4 c1bc effc 37bc 007c dab7 6808 8aba
00000170: 8036 4439 af05 0a3b 78a4 92ba e128 cbbb
00000180: a593 353b 18b4 31bb f03f 443b 440c 0abc
00000190: 45c4 46bc c423 e1bc b874 d43b d868 f9bb
000001a0: 0293 00bd 3ba0 343c 2367 ddbb a406 2d3b
000001b0: 9efc 14bd 3e8b a9bc 6c52 cebc 82dc eebc
000001c0: 23d9 07bd 316d 7dbc 26b4 223c b95d 483b
000001d0: 943f f4bc 69d7 9fbb 5bd1 aeba f48d 76bc
000001e0: dbaa a1bc 2fe1 97bc dcf9 fbbc 4ba3 97bc
000001f0: b9e1 aabc becb 38bc 1917 59bc 6085 be3a
00000200: 0694 f1ba 6ae5 0bbc 3c17 38bc ad4b bfbc
00000210: 20b5 7e3b 56c4 bebb 9061 3b3b 2ed3 973a
00000220: 7425 28bc 5534 11bc 6cb9 5bbb ec9e 2dbb
00000230: 5211 5ebb dab0 5b3c 4a41 9c3b f48b 843b
00000240: fac6 ef3b 6172 5f3c 92a8 a93c 9a8a eabb
00000250: ceb7 58ba 2d3d 623c 7207 b0bb 056d 55bc
00000260: 80fd b238 69e4 dc3c 7349 823c ddda 08bd
00000270: 3266 713c 34ac b53d 6861 613d 929a 5dbd
00000280: 2c72 093d 7e17 ab3d 6d56 39bc fd29 b3bc
00000290: 40ea 3c39 908c d43a c315 13bc 8c6d 453c
000002a0: 74a0 dcbb 2b9b 97bc ca2f 3cbc 10a2 60bb
000002b0: 225a 9cbc 64f0 083d ce88 b03c a9c7 26bd
000002c0: 4ae8 ccbc 2e15 b13d 7ea8 bd3c f886 6dbd
000002d0: 3285 4d3c 71df 52bd ce4e b0bc a6ee 373c
000002e0: bccd c2bc 5a3b cdbc 64fa 8e3c 1165 c8bc
000002f0: 866f 18bd 6477 fd3c 6f01 c8bc 78de a8ba
00000300: c976 d53c c2ae 8ebc dd04 50bc d6ba 493d
00000310: 3057 05bc 9973 a0bc 9010 a43b 5439 85bc
00000320: 6e67 a8bc 8ad4 ca3b cc6b cf3c e321 cc3c
00000330: 50d8 c6bc 751e 01bc 74d4 0b3c 8126 93bb
00000340: b35a 8b3c 6560 dbbc a557 3fbc de9b 4a3d
00000350: 6832 e4bb 3a65 6cbd 9572 033d 20cc 203d
00000360: 9612 14bb 5842 a53b ae98 093d b091 febc
00000370: 1ff1 49bc faeb 2e3c 247a 1dbc 7464 c8bc
00000380: f991 0abc 4853 a03c 7673 ad3b 1822 febb
00000390: 66cb c33c 9b6d 913b 3da2 acbc 11cc 833d
000003a0: 8ca3 2c3d 15da 63bb 29d4 11bc 185b 2dbc
000003b0: 253a 1d3b 7552 cbbb 72fd a8bc ec52 1c3b
000003c0: 1b7d 283c f2e8 25bc 5ae2 cbbc e050 76bc
000003d0: e338 0dbd 801a 30bd cf5e 863c 80a9 2fba
000003e0: fc84 d9bc 189e e73b d69c 283c 1e12 14bc
000003f0: 983a 4bbb 7a90 dabc 3f98 d9bc 38d8 213d
0.004020391 -0.0051140497 -0.0007363986 0.008373362 0.0051328577 0.0010036291 -0.005426934 -0.0009517493
-0.0047149407 -0.052350387 -0.039130192 -0.02597246 -0.014279462 -0.018090982 -0.015110435 0.012878554
-0.0056259427 -0.031010428 0.0027098018 -0.004878767 -0.015149178 0.01295955 0.0036152485 0.005426637
0.0018706133 0.008553631 0.008158139 0.009212698 -0.023936758 -0.0150788585 -0.013470164 0.002568548
0.010173793 -0.025674013 -0.012216844 -0.0009336113 0.0002668295 -0.01832797 -0.029039621 0.01820814
-0.022620806 -0.0055039776 0.00876449 -0.016128533 0.0068408344 -0.0003427175 -0.020603884 -0.0024234848
-0.0025204155 -0.011709044 0.0060463133 -0.013392588 -0.021384023 0.0028812676 -0.018674076 -0.018903889
-0.022405684 0.004928572 0.00035216758 0.003290467 0.010420487 0.007748944 -0.0020024218 -0.03703949
-0.010752501 -0.0072435923 -0.012515708 -0.015549018 -0.022477593 0.009135572 -0.018455232 -0.032953423
0.0058327 -0.0019937167 -0.0006442778 -0.0001663845 0.012870016 0.0072127385 -0.0050814594 0.008197575
9.027682e-05 0.003543749 -0.004111528 -0.0014371006 -0.0024999257 -0.016751802 -0.007211903 -0.028450295
-0.023645649 -0.011229738 -2.6045367e-05 -0.001053107 0.0001871232 0.0021060517 -0.0011187932 -0.0061999415
0.0027706411 -0.00271154 0.0029945336 -0.008425776 -0.012131755 -0.027482875 0.0064836405 -0.0076113753
-0.031390198 0.01102453 -0.0067566796 0.0026401663 -0.036373727 -0.020696279 -0.025185786 -0.02915788
-0.033166062 -0.015467928 0.009930646 0.0030573441 -0.029815473 -0.004877974 -0.0013337539 -0.015048493
-0.01973479 -0.018539993 -0.03075879 -0.018510481 -0.020859586 -0.011279045 -0.013250136 0.0014535598
-0.0018430955 -0.008538583 -0.011236008 -0.023351515 0.0038865283 -0.005821745 0.0028592087 0.0011583322
-0.010262836 -0.008862575 -0.0033527268 -0.002649243 -0.0033884835 0.013408864 0.0047685253 0.004045004
0.007317421 0.01363811 0.020710263 -0.007157636 -0.0008267135 0.013808531 -0.0053719813 -0.013026481
8.5349195e-05 0.026964383 0.015904164 -0.03341185 0.014733838 0.08870736 0.055024534 -0.054102488
0.03355615 0.0835409 -0.011312109 -0.021870608 0.00018016342 0.0016216207 -0.008977356 0.012050044
-0.0067329947 -0.018506607 -0.011486003 -0.0034276284 -0.019085947 0.03343238 0.021549609 -0.040717755
-0.025013108 0.08646618 0.023151632 -0.057990044 0.012543963 -0.05148262 -0.021521952 0.011226332
-0.023779742 -0.025052715 0.01745338 -0.024462255 -0.037215732 0.030940719 -0.024414746 -0.0012883684
0.026057618 -0.017417315 -0.012696472 0.049250446 -0.008138463 -0.019586371 0.005006857 -0.016262688
-0.020557132 0.0061898874 0.025319956 0.024918502 -0.024273068 -0.007880797 0.0085345395 -0.004490674
0.017011022 -0.026779363 -0.011678611 0.049465053 -0.0069640167 -0.057713725 0.032091696 0.03925717
-0.0022594086 0.005043309 0.033592872 -0.031075329 -0.012325554 0.010676378 -0.00961164 -0.024461962
-0.008457654 0.019570962 0.005293305 -0.007755529 0.023900699 0.004438115 -0.021073455 0.06435407
0.042148158 -0.0034767438 -0.008900681 -0.0105808005 0.0023990956 -0.006204898 -0.020628665 0.0023853136
0.010283734 -0.010126339 -0.024888206 -0.015033931 -0.03447808 -0.042994022 0.01640263 -0.00067009777
-0.02655267 0.007068407 0.010291299 -0.009037523 -0.0031010266 -0.02668022 -0.026561854 0.039512843

momentum_buffer f4 [32]
00000000: 01c2 03bc 3c02 b13b f60b 383c 449a 5ebc
00000010: b8bd 543b c4ab e83c 691f 6639 c19b 88bc
00000020: 4c59 1f3b 94e3 a9bb ce19 cc3c 277d 933c
00000030: 5023 ef3c d6ce 493c de80 72bd 4ce8 823b
00000040: dceb cd3c 1a88 eabc 95c9 ad3c fc17 bf3c
00000050: cdd4 533d 4029 efba 5738 643d 68e5 2bbc
00000060: 1991 9bbc 0512 813c ca47 08bd f03d f5bc
00000070: 0880 75bb 4e2d 8fbc 6c0f 853b c335 0fbd
-0.00804186 0.0054018777 0.01123332 -0.0135865845 0.0032461714 0.028402217 0.0002194621 -0.016675832
0.00243147 -0.0051846 0.024914648 0.018004013 0.029191643 0.01231738 -0.05920493 0.003994977
0.02513688 -0.028629351 0.021214286 0.023326866 0.051716615 -0.0018246546 0.055717792 -0.010491706
-0.018990086 0.015755663 -0.03327159 -0.02993676 -0.0037460346 -0.017477658 0.0040606763 -0.03496338
